Nash DQN - Updated/pt_files/Nash_DQN/Action_Net.pt (torch, 22017 bytes, 12 tensors)

decoder_net.0.weight f4 [32, 5]
0	0x3edfc7ef	0.43707225
1	0xbee7c374	-0.45266306
2	0x3d72e53a	0.05930064
3	0xbeab9c26	-0.3351757
4	0x3e9e3f8b	0.30907854
5	0xbde989eb	-0.11403259
6	0xbedcc358	-0.43117785
7	0xbe5bd015	-0.21466096
8	0xbe5e8381	-0.21729852
9	0xbddbcfab	-0.10732969
10	0x3e510294	0.2041114
11	0x3ee126ae	0.43974823
12	0x3e18caab	0.14921062
13	0x3ce00bab	0.027349314
14	0x3e600221	0.21875812
15	0xbe625dff	-0.22106169
16	0xbe22d50e	-0.15901586
17	0xbe9b0bf0	-0.30282545
18	0xbea1932f	-0.31557605
19	0x3ece5643	0.40300187
20	0x3d85c724	0.06532124
21	0x3cbe5735	0.023234943
22	0xbe6f348e	-0.23359892
23	0xbd1d5787	-0.03841355
24	0x3d21ef90	0.039535105
25	0xbf2d115d	-0.6760462
26	0xbecd589d	-0.4010667
27	0xbec8a299	-0.39186552
28	0xbecf8a21	-0.40535071
29	0xbe70dbfc	-0.23521417
30	0xbf4caf64	-0.79955125
31	0x3ef67a49	0.4814017
32	0xbd98fc9c	-0.074700564
33	0x3e05b477	0.13057123
34	0xbd670c2a	-0.056408085
35	0x3df4ee2e	0.11959492
36	0x3ee925c1	0.45536616
37	0xbe8d5716	-0.27605504
38	0x3ed09795	0.40740648
39	0xbd04fb24	-0.03246607
40	0x3e0b0198	0.13574827
41	0xbf3a4508	-0.72761583
42	0x3d13ef3f	0.036116835
43	0x3e4ecd41	0.20195486
44	0xbece6bd8	-0.40316653
45	0xbe13cd6d	-0.14433832
46	0x3f1118f7	0.5667872
47	0x3e9bb18e	0.304089
48	0xbf032e78	-0.5124278
49	0x3e51bee4	0.20482975
50	0xbca8c5d1	-0.020602139
51	0x3de753a2	0.112952486
52	0x3da3dd14	0.08001152
53	0xbe373430	-0.17891002
54	0xbebf27f1	-0.3733516
55	0xbf65a865	-0.89710075
56	0xbf3274d0	-0.6970949
57	0x3d24b140	0.0402081
58	0x3de688f7	0.11256593
59	0x3e41c095	0.1892112
60	0xbee99083	-0.45618066
61	0x3d5fa9c4	0.05460526
62	0x3e4b0ccb	0.19829099
63	0xba4f4774	-0.00079070707
64	0xbe87aafb	-0.26497635
65	0x3d1321e9	0.03592101
66	0x3f022eee	0.5085286
67	0xbd89bc0b	-0.067253195
68	0x3e0a0be9	0.13481106
69	0xbee458fd	-0.44599143
70	0x3d6e1f6c	0.058135435
71	0xbec7721c	-0.38954246
72	0xbf009073	-0.5022041
73	0x3dd1cb96	0.10243909
74	0xbdf7805b	-0.12085029
75	0xbf367d46	-0.712849
76	0x3e22afb2	0.15887335
77	0xbe85ec1d	-0.26156703
78	0x3e9ee702	0.3103562
79	0xbe2bd1bf	-0.1677923
80	0x3d5acc63	0.053417575
81	0xbeec54d5	-0.46158472
82	0x3d9cf5a8	0.07664043
83	0x3d3ab8db	0.04558645
84	0xbecafb76	-0.39644974
85	0xbe6237ab	-0.22091548
86	0x3e21d4f9	0.15803899
87	0xbe92a1fb	-0.28639206
88	0xbd0b0da2	-0.03394855
89	0x3d112cb7	0.035443034
90	0xbc8d87b4	-0.017276622
91	0xbe1ed218	-0.15509832
92	0xbf0a679e	-0.5406436
93	0xbd668948	-0.056283265
94	0xbe0ee95e	-0.1395621
95	0xbeba2005	-0.36352554
96	0x3ec597af	0.38592288
97	0x3e246aa1	0.160563
98	0x3eb6796d	0.35639516
99	0xbd154ddc	-0.036451206
100	0xbf4ca711	-0.79942423
101	0x3ebcc728	0.36870694
102	0x3e09d779	0.13461103
103	0xbe4af980	-0.19821739
104	0x3e489273	0.19587116
105	0x3ea85ef3	0.3288494
106	0xbf4f92b7	-0.81083244
107	0xbab42673	-0.0013744369
108	0xbe2cd218	-0.1687702
109	0x3df50634	0.11964074
110	0xbcb634e3	-0.022242015
111	0x3f1e7fe4	0.61913896
112	0xbea740e3	-0.32666692
113	0xbec56fc6	-0.3856184
114	0x3e4a6283	0.19764142
115	0xbedcea42	-0.43147475
116	0x3ae48a88	0.0017436305
117	0x3edfbf5a	0.43700677
118	0xbc75f945	-0.015013044
119	0xbe704b02	-0.23466113
120	0xbee3ed07	-0.44516775
121	0xbe55d3a9	-0.20881523
122	0x3e97009b	0.2949265
123	0x3e09041a	0.13380471
124	0xbe07a67d	-0.13247104
125	0xbecb4e46	-0.39708155
126	0xbe2edc13	-0.17076139
127	0x3ecfd5bc	0.40592754
128	0xbdac5a44	-0.08415654
129	0x3e5a3c7f	0.2131214
130	0xbdbbadb9	-0.09163994
131	0x3f0984a7	0.53718036
132	0xbec667bd	-0.3875102
133	0x3e853feb	0.26025328
134	0x3e614a54	0.2200101
135	0x3f232466	0.63727415
136	0x3f7179a1	0.94326216
137	0x3e622e1e	0.22087905
138	0x3edf0923	0.43561658
139	0xbe8b3cc0	-0.27194786
140	0x3ed1ab85	0.40951172
141	0x3f6b1081	0.9182206
142	0x3af69b32	0.0018814562
143	0x3e0b0930	0.13577724
144	0x3e3aad98	0.18230283
145	0xbf255890	-0.6458826
146	0x3e9c067d	0.304737
147	0xbeafd584	-0.34342587
148	0x3f052dd3	0.5202305
149	0xbe6920a6	-0.2276636
150	0xbd81bbc7	-0.06334644
151	0xbec5bc23	-0.386201
152	0xbe2d28f3	-0.16910152
153	0x3eaa003c	0.33203304
154	0x3e0d20ef	0.13782094
155	0xbebedb77	-0.37276813
156	0xbea390bb	-0.31946358
157	0x3eb12139	0.3459566
158	0xbaaeb685	-0.0013329542
159	0xbc1ceca2	-0.009577902

decoder_net.0.bias f4 [32]
0	0xbde5c17b	-0.11218544
1	0xbe90d827	-0.2828991
2	0x3ed783a7	0.4209263
3	0x3d163693	0.03667314
4	0xbe1455e9	-0.14485897
5	0xbea203a4	-0.31643403
6	0xbe931d4b	-0.28733286
7	0xbe9ec79f	-0.31011674
8	0x3e741225	0.23835047
9	0x3dd4931c	0.103796214
10	0x3b7773d8	0.0037758257
11	0x3e803d06	0.25046557
12	0xbde68899	-0.11256523
13	0x3ec81714	0.39080107
14	0x3e88b466	0.26700133
15	0xbecd7c02	-0.40133673
16	0xbead31f5	-0.33827177
17	0xbdccd67e	-0.10001849
18	0x3e585d6d	0.21129389
19	0x3daf3cb4	0.085565
20	0x3e0dc6e2	0.13845399
21	0xbc90250c	-0.01759579
22	0xbee1d35b	-0.44106564
23	0x3e27ba0a	0.16379562
24	0xbecef5be	-0.4042186
25	0xbad42693	-0.0016185812
26	0x3e57adbe	0.21062371
27	0x3e398611	0.18117549
28	0x3d16bdb2	0.036802
29	0xbe54f3fc	-0.20796198
30	0xbd4bf229	-0.04979149
31	0xbdd23ddc	-0.10265705

decoder_net.2.weight f4 [32, 32]
0	0x3e6a27c6	0.22866735
1	0xbc85c1bd	-0.016327733
2	0x3c8f6b25	0.017507145
3	0xbd2624bd	-0.04056238
4	0xbdd6679b	-0.1046898
5	0xbe3664e9	-0.17811932
6	0xbdf384a2	-0.11890532
7	0x3e4d8c6e	0.20073101
8	0x3e5f1880	0.2178669
9	0xbe11ae7d	-0.14226718
10	0xbdbb9d9a	-0.091609195
11	0xbd7d4d0c	-0.061841056
12	0x3e02aff5	0.12762435
13	0x3d116e26	0.035505436
14	0xbd92c8d7	-0.071672134
15	0xbbbadc24	-0.0057025123
16	0x3e33afb9	0.17547502
17	0x3d0d6386	0.03451874
18	0x3d8dc1a8	0.069217026
19	0xbd0c4575	-0.034245927
20	0xbe7e46fe	-0.24831769
21	0x3df121a8	0.117739975
22	0x3d481352	0.04884655
23	0x3e1ac2a8	0.15113318
24	0xbe199ef9	-0.1500205
25	0x3e0fde2e	0.14049599
26	0xbc71b742	-0.014753165
27	0xbcf8e985	-0.030384788
28	0xbc37ba6d	-0.011213881
29	0xbe3d2660	-0.1847167
30	0x3d3f57f8	0.046714753
31	0xbda6d669	-0.08146364
32	0xbb4207e7	-0.002960676
33	0x3e123993	0.14279775
34	0xbd58940e	-0.05287557
35	0xbd68aad3	-0.056803536
36	0xbd1d3b24	-0.03838648
37	0xbc926144	-0.017868645
38	0x3d682a4d	0.056680966
39	0x3ce3bd0b	0.027800104
40	0xbe5e56f5	-0.21712859
41	0xbc8e2acc	-0.017354392
42	0xbdc8a138	-0.09796375
43	0x3d9ca03f	0.07647752
44	0x3e71e40d	0.2362215
45	0x3db25501	0.087076195
46	0x3e1fa289	0.15589346
47	0x3d815288	0.0631457
48	0x3cccb0a2	0.024986569
49	0x3d6e5f19	0.05819616
50	0xbd9ad18e	-0.07559501
51	0x3e618110	0.2202189
52	0x3d945877	0.07243436
53	0xbe911240	-0.28334236
54	0x3dcec0dd	0.100953795
55	0x3e1206b3	0.14260368
56	0x3d5fccd9	0.054638717
57	0x3e2ebe32	0.17064741
58	0xbd0ba688	-0.034094363
59	0x3e0a1fa6	0.13488635
60	0x3d285cff	0.041104313
61	0xbcec4138	-0.028839692
62	0x3d46d2f3	0.04854102
63	0x3ae08a10	0.001713099
64	0x3e777b91	0.2416823
65	0xbd28614f	-0.041108426
66	0xbdbf45d3	-0.0933949
67	0x3d4dbdd4	0.050229862
68	0xbd4530fd	-0.048142422
69	0x3a6b19d4	0.0008968387
70	0xbe85a2fe	-0.26100916
71	0x3e2812cd	0.16413422
72	0xbc2d5a71	-0.010580645
73	0xbe0eb973	-0.13937931
74	0x3bebb51f	0.007193222
75	0x3d35931c	0.044329748
76	0x3e074a81	0.13212015
77	0xbe885c1d	-0.26632777
78	0x3e1ce511	0.15321757
79	0xbc9389e4	-0.018010087
80	0x3d9948d7	0.07484596
81	0x3d373978	0.04473254
82	0xbe09f7b0	-0.13473392
83	0xbd813116	-0.063081905
84	0x3d53e4de	0.051731937
85	0x3ed6b5f3	0.4193569
86	0x3e4726c2	0.19448379
87	0x3cea98a1	0.028637232
88	0x3beb936f	0.0071892063
89	0xbcac9746	-0.021068227
90	0x3e3642eb	0.17798965
91	0xbd99350b	-0.0748082
92	0xbe4e80bb	-0.20166294
93	0xbdce4cc0	-0.10073233
94	0x3df818c3	0.12114098
95	0x3e26f9e5	0.16306265
96	0xbdce927f	-0.10086536
97	0xbd621bcb	-0.055202287
98	0xbdd61acd	-0.104543306
99	0x3e61e079	0.22058286
100	0xbdb4f80f	-0.08836376
101	0x3deeb7f1	0.11656178
102	0x3eaba2e2	0.33522707
103	0x3e003b94	0.12522727
104	0xbe649d1e	-0.2232556
105	0xbc688a7f	-0.014193176
106	0x3dd5444d	0.10413418
107	0x3e89f56f	0.26945063
108	0x3e49fe91	0.19726016
109	0x3dc3db51	0.09563316
110	0x3dc8ad21	0.09798647
111	0x3ea1d36a	0.3160661
112	0x3d89e6aa	0.06733449
113	0x3d1d6dd9	0.038434837
114	0xbddedece	-0.1088234
115	0x3e8f5185	0.27991882
116	0x3e66618f	0.22498153
117	0x3ca083ed	0.019594157
118	0xbcc62b9b	-0.024190715
119	0x3e2617ce	0.16220018
120	0x3e2ff049	0.17181505
121	0xbc21a040	-0.009864867
122	0xbdb8186a	-0.089890316
123	0x3df4daff	0.11955833
124	0x3e4738f5	0.19455321
125	0x3d423003	0.04740907
126	0x3e5b316c	0.21405572
127	0xbbe3a462	-0.006947086
128	0x3e174d9d	0.14775701
129	0xbe739f8a	-0.23791328
130	0x3e4f5dad	0.20250578
131	0xbe6443d5	-0.22291501
132	0xbd3cdda5	-0.046109814
133	0xbe3a3668	-0.18184817
134	0xbdddf4ca	-0.108377054
135	0xbdcca1e0	-0.09991813
136	0xbc43f3d2	-0.011959987
137	0xbccd9cda	-0.025099207
138	0x3dc833b6	0.09775488
139	0x3da40e8e	0.080105886
140	0x3dace8e0	0.08442855
141	0x3dc1ae02	0.094570175
142	0xbe7902e8	-0.24317515
143	0xbe7d61cf	-0.24744342
144	0xbe185754	-0.14877063
145	0xbe239b7b	-0.1597728
146	0xbe89ad70	-0.26890135
147	0x3e03ba08	0.12863934
148	0x3e86cbbd	0.26327315
149	0xbe81a464	-0.25320733
150	0xbe6187b8	-0.22024429
151	0x3d49409e	0.04913389
152	0x3deb55eb	0.11490997
153	0x3db8d891	0.09025682
154	0xbd93b729	-0.072126694
155	0x3e0c6996	0.13712153
156	0x3e5bc3b1	0.21461369
157	0xbeaecadd	-0.34139147
158	0xbdcb9071	-0.099396594
159	0x3dcf31b3	0.10116901
160	0x3e67b27b	0.22626679
161	0xbd27a8fd	-0.040932644
162	0x3d1dd3ca	0.038532056
163	0xbde2118a	-0.110385016
164	0x3b1e8517	0.0024188214
165	0xbe3a40e0	-0.1818881
166	0xbd0efa2b	-0.034906548
167	0x3dd9ef0e	0.10641299
168	0x3e0bb17a	0.1364192
169	0xbd9a708c	-0.07540998
170	0xbe15a200	-0.1461258
171	0x3ca4aef9	0.020102965
172	0xbda916ab	-0.08256277
173	0xbe5610f9	-0.20904912
174	0x3e04a96e	0.12955257
175	0x3b1765c9	0.002310144
176	0x3bbb6805	0.005719187
177	0x3e37f2fa	0.17963782
178	0x3d7ef512	0.062245436
179	0x3b930c5f	0.0044875587
180	0x3ac0fe46	0.0014724217
181	0x3f04779f	0.5174503
182	0x3e001ef4	0.12511808
183	0x3d6381af	0.055543598
184	0x3c90d38b	0.017678997
185	0x3d10c94a	0.035348214
186	0xbd026be5	-0.031841177
187	0xbd66e2cc	-0.056368634
188	0xbd74d892	-0.05977685
189	0xbdba09e8	-0.09083921
190	0x3a4c8239	0.0007801387
191	0xbcc6e115	-0.02427725
192	0xbd1cf819	-0.038322542
193	0xbcdebc8b	-0.027189514
194	0xbd95c343	-0.07312634
195	0x3de8325b	0.113377295
196	0x3e13f7f6	0.14450058
197	0x3d6afdb8	0.05737087
198	0x3e3a7eca	0.18212429
199	0x3d7a9114	0.061173514
200	0xbe45609e	-0.19275138
201	0x3d956e40	0.07296419
202	0x3e14c450	0.14528012
203	0x3dd66d5c	0.104700774
204	0x3dfbd9cd	0.122974016
205	0xbe404d71	-0.18779542
206	0xbc48098a	-0.012209306
207	0x3e178afe	0.14799115
208	0xbd0c764e	-0.03429251
209	0xbdeaa479	-0.11457152
210	0x3dabb879	0.08384795
211	0x3e2ca3ff	0.16859435
212	0x3e293c4d	0.16526909
213	0xbd5c6ef5	-0.053816754
214	0x3d92e56b	0.07172664
215	0x3e6ec696	0.23317942
216	0x3eaaf2ea	0.33388454
217	0x3df61f29	0.12017662
218	0xbd14eb79	-0.036357377
219	0xbe774b77	-0.24149881
220	0x3d6a0cb3	0.057141017
221	0x3e2f4160	0.17114782
222	0x3dc4d2d4	0.09610525
223	0x3e4424a2	0.191546
224	0xbe8f6ffc	-0.28015125
225	0xbd888c0c	-0.06667337
226	0xbde1ec82	-0.110314384
227	0x3d6f5c84	0.05843784
228	0x3e0dd3b5	0.13850291
229	0xbc9b977c	-0.018993132
230	0xbe6c5cf8	-0.2308234
231	0x3df139e9	0.117786236
232	0x3dec971c	0.11552259
233	0xbda0c719	-0.07850475
234	0x3dea9ba2	0.11455466
235	0xbe0767cb	-0.13223188
236	0xbdcfc6b8	-0.101453245
237	0xbc61e131	-0.0137866
238	0x3e0df436	0.1386269
239	0xbe3a24b7	-0.18178068
240	0xbdc80843	-0.09767201
241	0xbdac526c	-0.08414158
242	0x3e372610	0.17885613
243	0xbe5b3c54	-0.21409732
244	0xbdd608c1	-0.104508884
245	0xbe4675dd	-0.19380899
246	0xbd3ad515	-0.045613367
247	0x3d12a870	0.035805166
248	0xbd6e2dbc	-0.058149084
249	0xbe53f411	-0.20698573
250	0x3e45c915	0.19314988
251	0xbda2eaa3	-0.0795491
252	0x3dae473c	0.08509681
253	0x3d89b4a6	0.06723909
254	0xbde42609	-0.11140067
255	0xbe412616	-0.18862185

decoder_net.2.bias f4 [32]
0	0xbe17fd2b	-0.1484267
1	0x3da68007	0.08129888
2	0x3da7a540	0.08185816
3	0xb99927da	-0.00029212126
4	0x3deb38d9	0.11485452
5	0x3deeae59	0.11654348
6	0xbe860300	-0.26174164
7	0xbda4d9b4	-0.08049336
8	0x3e05f058	0.13079965
9	0xbcf24d14	-0.02957777
10	0x3dfe050a	0.12403305
11	0x3e08d263	0.13361506
12	0x3d94c993	0.0726501
13	0xbd340a7b	-0.043955307
14	0x3e94861b	0.29008564
15	0x3df1bda7	0.118037514
16	0xbcf0e6b1	-0.029406877
17	0x3d5ef051	0.054428402
18	0x3cd81b6b	0.026380261
19	0xbb63bac4	-0.0034748772
20	0x3e6e99da	0.23300877
21	0xbdd95c83	-0.10613348
22	0x3e698d6a	0.22807851
23	0xbc2d9464	-0.010594461
24	0x3de89ba5	0.11357812
25	0xbe5ff58e	-0.21871015
26	0xbdc8d04e	-0.09805356
27	0xbe076553	-0.13222246
28	0x3e2199f5	0.15781386
29	0x3d9b25a7	0.07575541
30	0x3ddf1196	0.10892026
31	0x3e3cbcc1	0.18431379

decoder_net.4.weight f4 [32, 32]
0	0xbe0db221	-0.13837482
1	0x3e3f34c2	0.1867247
2	0x3e42b0a2	0.19012693
3	0xbbfdde55	-0.0077474513
4	0x3d95bb9c	0.07311174
5	0x3dd2c95d	0.10292313
6	0x3d262485	0.04056217
7	0xbe0ee6ef	-0.13955282
8	0xbddbbc0c	-0.107292265
9	0xbd8cdb34	-0.06877747
10	0x3e50b4c5	0.20381458
11	0x3b8d4f67	0.004312444
12	0xbe2563ff	-0.16151427
13	0x3e069d3b	0.13145916
14	0x3de92d26	0.113855645
15	0x3dc66cea	0.096887425
16	0xbd284ae2	-0.04108704
17	0xbda8509e	-0.082185015
18	0x3e5ce039	0.21569909
19	0x3d76e06d	0.060272623
20	0xbd0cb678	-0.034353703
21	0xbd1df49e	-0.038563363
22	0x3c565211	0.01308109
23	0x3cc60d39	0.024176227
24	0xbc4f2af6	-0.01264452
25	0xbe000955	-0.1250356
26	0xbdcd100e	-0.10012828
27	0x3d79f9d9	0.06102929
28	0x3e0565cd	0.13027115
29	0x3d984a11	0.07436002
30	0xbe0621ba	-0.13098803
31	0x3e0f477e	0.13992116
32	0xbdc87e4c	-0.09789714
33	0xbe2fccf9	-0.17168035
34	0xbd3cfc58	-0.04613909
35	0xbde40d47	-0.11135345
36	0xbdf20649	-0.11817605
37	0x3c86393f	0.016384719
38	0x3d3296ab	0.04360072
39	0xbdbafb9c	-0.09130022
40	0x3d8dfcd7	0.06932991
41	0xbbc2055f	-0.0059210504
42	0x3e273d08	0.16331875
43	0xbe37c91d	-0.17947812
44	0xbc3d59ec	-0.011557084
45	0x3e65b815	0.22433503
46	0x3e226ca6	0.15861759
47	0xbd942386	-0.07233338
48	0xbe08813f	-0.13330553
49	0xbde6b5e5	-0.112651624
50	0x3e4488f0	0.19192863
51	0xbe0625c9	-0.13100351
52	0x3d854cc0	0.065087795
53	0x3d9e059f	0.07715916
54	0x3acbc0dd	0.0015545149
55	0x3e3fb811	0.1872256
56	0xbe286381	-0.16444208
57	0xbe0e2167	-0.1387993
58	0x3dfc3b82	0.12316038
59	0xbdf38a68	-0.11891633
60	0x3e520d9d	0.20513006
61	0xbda17dfd	-0.078853585
62	0x3ddc4600	0.10755539
63	0x3d82086d	0.06349263
64	0x3c6f3a90	0.014601365
65	0x3cdf4162	0.027252857
66	0xbd6eae22	-0.058271535
67	0x3cbe24a2	0.023210827
68	0xbce3e18e	-0.027817514
69	0x3e72a1cc	0.23694533
70	0x3e288819	0.16458167
71	0x3c302dd1	0.010753111
72	0xbc35654d	-0.011071515
73	0xbe09e523	-0.13466315
74	0x3e770aa1	0.24125148
75	0x3e59a17e	0.2125301
76	0xbe0ce469	-0.13759007
77	0x3b9afc00	0.004729748
78	0x3ddacea1	0.106839426
79	0x3e3a97de	0.18221995
80	0x3e07cca3	0.13261656
81	0x3e4ea462	0.20179895
82	0x3c41f54e	0.01183827
83	0xbd94ed20	-0.072717905
84	0xbe843ab6	-0.25826043
85	0x3e247246	0.16059217
86	0x3dd60fd1	0.104522355
87	0x3e333fcb	0.17504804
88	0x3d182697	0.037146177
89	0x393d77ec	0.00018069119
90	0xbe708be6	-0.23490867
91	0x3e5eb450	0.21748471
92	0x3d6cd03d	0.05781578
93	0xbc061ad5	-0.008185108
94	0x3dff8f86	0.12478547
95	0xbe0030eb	-0.1251866
96	0x3e001fe7	0.1251217
97	0x3e0a5c9e	0.13511893
98	0xbd348fa5	-0.044082303
99	0xbe071f52	-0.13195542
100	0x3de2281a	0.11042805
101	0x3de25bf2	0.110526934
102	0x3cfb6bae	0.030690994
103	0xbd906632	-0.07050742
104	0x3cd3daee	0.02586123
105	0x3d80a21c	0.0628092
106	0xbe269842	-0.16269019
107	0x3e035a33	0.12827377
108	0x3d742c81	0.059612755
109	0xbc155631	-0.009114788
110	0x3d8f5c6e	0.070000514
111	0x3cc82755	0.024432817
112	0xbd3d840f	-0.04626852
113	0x3dd55636	0.10416834
114	0xbe6db80c	-0.2321474
115	0x3e088c96	0.1333488
116	0xbb091303	-0.0020915873
117	0x3e3e1f11	0.18566538
118	0xbe0d9f0f	-0.13830207
119	0x3ddc7aaf	0.107655875
120	0x3dd17e01	0.102291115
121	0xbdb5f163	-0.088839315
122	0xbd968a55	-0.073506035
123	0x3e3c59a7	0.18393575
124	0x3df8ff11	0.12158025
125	0xbb5a3d3a	-0.0033300654
126	0xbc8fc058	-0.017547771
127	0xbe11db28	-0.14243758
128	0xbd94f979	-0.07274146
129	0x3df15900	0.117845535
130	0xbdc8f68f	-0.09812652
131	0xbdc1f7e4	-0.094711095
132	0x3c5bd297	0.013416908
133	0xbe8b9867	-0.2726471
134	0xbdcac611	-0.099010594
135	0xbcc8333d	-0.024438495
136	0x3dde2e7a	0.108487085
137	0xbd8cf8bd	-0.068833806
138	0xbb869f0f	-0.0041083167
139	0xbeb2523f	-0.34828374
140	0xbd81656d	-0.063181736
141	0xbe1035a0	-0.14082956
142	0xbe55047b	-0.2080249
143	0xbd509c30	-0.050930202
144	0xbdac7efa	-0.08422656
145	0xbe15403c	-0.14575285
146	0xbe4b45eb	-0.1985089
147	0xbbfdaba7	-0.00774141
148	0x3e9536ad	0.29143277
149	0x3e2655cf	0.16243671
150	0x3daf7e85	0.085690536
151	0xbea42c5b	-0.3206509
152	0xbd02a0b9	-0.03189156
153	0xbe627462	-0.22114709
154	0x3e9fca01	0.31208804
155	0xbe9a8cf9	-0.3018568
156	0xbdd0b58c	-0.10190877
157	0x3e81cf28	0.2535336
158	0x3da814f4	0.082071215
159	0xbd2cb39a	-0.04216347
160	0xbcd742f9	-0.026277052
161	0x3e064f84	0.1311627
162	0x3dbe0718	0.09278697
163	0x3e066b22	0.13126805
164	0xbd2af309	-0.041735683
165	0x3dd3f7f5	0.103500284
166	0x3d9cf8e0	0.07664657
167	0x3e0d7ad0	0.1381638
168	0xbde38b81	-0.11110593
169	0x3db16ac7	0.08662944
170	0x3e541576	0.20711312
171	0x3d8730cc	0.06601104
172	0x3d825c58	0.063652694
173	0xbacd607a	-0.0015669011
174	0xbdaf2acc	-0.08553085
175	0x3d93a368	0.07208902
176	0xbd816d7b	-0.0631971
177	0x3e39bfcc	0.18139571
178	0x3e744f49	0.2385837
179	0x3d8bdd3e	0.06829308
180	0xbe186ec5	-0.14886005
181	0xbda2db46	-0.07951979
182	0x3e2f4b9d	0.17118688
183	0x3d985cc1	0.074395664
184	0xbe07db89	-0.1326734
185	0x3d88c8a9	0.06678898
186	0xbe0e815e	-0.13916537
187	0xbdb9ff7c	-0.09081933
188	0x3bb67fe4	0.005569445
189	0x3dcb1bc0	0.09917402
190	0xbe295f33	-0.16540222
191	0xbd39efa1	-0.045394544
192	0xbe50df4c	-0.20397681
193	0x3e3eb220	0.18622637
194	0xbd9dbc85	-0.07701973
195	0x3ddb0bbc	0.106955975
196	0xbcfadbd7	-0.030622406
197	0xbe8447fc	-0.2583617
198	0x3e981623	0.2970439
199	0xbdae4b1f	-0.08510422
200	0x3e71d6cf	0.23617099
201	0xbdadd55b	-0.0848796
202	0xbd481391	-0.048846785
203	0xbdcfa83a	-0.101395085
204	0xbe0f7d7d	-0.14012714
205	0xbea5518f	-0.32288787
206	0xbd82fcb0	-0.063958526
207	0x3d625324	0.05525507
208	0x3bfc451c	0.007698668
209	0x3def5629	0.116863556
210	0xbc2f6c40	-0.010706961
211	0x3e460aa6	0.1934
212	0x3dd2f802	0.1030121
213	0x3db4974a	0.088179186
214	0xbdfd20d8	-0.1235978
215	0x3ddd865e	0.10816644
216	0xbd45bc21	-0.048275117
217	0x3daba40f	0.08380901
218	0x3e1656c7	0.1468154
219	0x3eacf0ce	0.3377747
220	0x3e478563	0.19484477
221	0x3d94b242	0.072605625
222	0x3e7668d5	0.24063428
223	0xbdcb6d73	-0.09932985
224	0x3c9e2216	0.019303363
225	0x3e4bbb35	0.19895633
226	0x3dbd0568	0.09229547
227	0x3e8f6a92	0.28010994
228	0xbc41d615	-0.011830826
229	0x3da505bf	0.080577366
230	0x3e72ae40	0.23699284
231	0x3c88cab9	0.016698228
232	0xbc9d943a	-0.019235719
233	0xbe273edb	-0.16332571
234	0x3dc455ae	0.095866546
235	0xba9dcf97	-0.0012040016
236	0x3d330496	0.043705545
237	0xbe58ac81	-0.21159555
238	0x3c9b7317	0.018975778
239	0xbd165591	-0.036702696
240	0x3e136e72	0.143976
241	0xbdcbbf5c	-0.09948608
242	0xbd8048b1	-0.06263865
243	0x3e18fe90	0.14940858
244	0x3e146728	0.14492476
245	0x3e8c9d0b	0.27463564
246	0x3dd50d45	0.104029216
247	0x3e75ae4f	0.23992275
248	0xbe387f8f	-0.1801741
249	0x3cab03e0	0.020875871
250	0x3e6dfcb4	0.2324093
251	0x3e6564c0	0.22401714
252	0x3d55509b	0.052078824
253	0x3e1fc057	0.15600716
254	0x3e5e37d4	0.21700984
255	0xbe3b5195	-0.1829284

decoder_net.4.bias f4 [32]
0	0xbb38a9b9	-0.0028177334
1	0xbd2b8630	-0.041876018
2	0xbd703a7a	-0.058649518
3	0xbdb62d10	-0.08895314
4	0xbd2791e2	-0.04091061
5	0xbe1de0b1	-0.15417744
6	0x3d659fb3	0.056060504
7	0xbe24abef	-0.16081212
8	0xbd48fa10	-0.049066603
9	0xbd513baf	-0.05108231
10	0x3e1903ed	0.14942904
11	0xbcec4d47	-0.028845442
12	0xbb8380e4	-0.0040131677
13	0xbbeebbca	-0.00728557
14	0x3dd72316	0.10504739
15	0xbe2d2fac	-0.16912717
16	0x3d18d516	0.03731259
17	0xbc917a1b	-0.01775842
18	0x3dca4b95	0.098776974
19	0x3dfd2ade	0.12361692
20	0x3d9f1daa	0.0776933
21	0xbe175ca1	-0.14781429
22	0xbe1a8d51	-0.1509297
23	0xbe26fea4	-0.16308075
24	0xbc4de6fd	-0.012567279
25	0x3c8a0ce2	0.016851846
26	0x3d9b0988	0.07570177
27	0xbd2ce7c6	-0.042213224
28	0x3e231f1f	0.1592984
29	0xbe1a687f	-0.15078925
30	0x3d4b8405	0.04968645
31	0x3d9c9d75	0.0764722

decoder_net.6.weight f4 [32, 32]
0	0x3d4561a5	0.048188824
1	0xbd83c23c	-0.06433532
2	0x3e36b25d	0.17841478
3	0x3d1a8a17	0.03772935
4	0xbda71d17	-0.08159845
5	0xbce145bc	-0.027499072
6	0x3de9699d	0.11397097
7	0x3dd86b1b	0.10567304
8	0x3db34244	0.087528735
9	0xbe12ccb6	-0.14335904
10	0x3de1403f	0.10998582
11	0xbe49297a	-0.19644728
12	0x3e3a9fe4	0.18225056
13	0xbe75689e	-0.2396569
14	0xbd58ffd4	-0.05297835
15	0x3e49b162	0.19696572
16	0x3da60227	0.08105879
17	0x3e1a8071	0.15088059
18	0x3e07e9bf	0.13272761
19	0x3c7de5c0	0.015496671
20	0x3d4e1cbb	0.05032037
21	0x3ad08cdc	0.001591112
22	0xbe7abebc	-0.24486822
23	0x3e30d3eb	0.1726834
24	0x3e01e2ee	0.12684223
25	0x3e03103b	0.1279916
26	0x3e2fdc98	0.17173994
27	0x3d356ca1	0.04429305
28	0x3e1159a7	0.14194356
29	0x3d4beedd	0.049788345
30	0x3c8505b0	0.016238064
31	0x3dd9151f	0.10599732
32	0x3dee5ea6	0.116391465
33	0x3e122d87	0.1427518
34	0x3e14ef36	0.14544377
35	0x3dd2a8c1	0.102860935
36	0x3cf78564	0.030214973
37	0x3c32d522	0.010915073
38	0xbcab7fe0	-0.020934999
39	0x3dbf33db	0.093360625
40	0x3d84cd61	0.064844854
41	0x3cdf554e	0.027262356
42	0xbdc38914	-0.0954763
43	0xbcc5b728	-0.024135187
44	0xbda4b8df	-0.08043074
45	0xbe010ec4	-0.12603289
46	0x3c9900b9	0.018677102
47	0x3c8809d7	0.016606255
48	0x3dff1673	0.12455454
49	0x3c9d4bb1	0.019201132
50	0xbda9e9ea	-0.08296569
51	0x3daf0e6c	0.08547673
52	0x3e336cbd	0.17521949
53	0x3c9e5966	0.019329738
54	0xbdfaaac7	-0.122396044
55	0x3d0d7af7	0.034541097
56	0x3dd9db1c	0.10637495
57	0x3e23a9e5	0.15982778
58	0x3d43df3c	0.047820315
59	0xbc5d07a8	-0.013490595
60	0x3d439215	0.047746737
61	0xbd03e7e6	-0.032203577
62	0x3e03c672	0.1286867
63	0xbdd64490	-0.10462296
64	0xbd36b37f	-0.044604775
65	0x3dddbda9	0.108271904
66	0x3e6b993b	0.23007672
67	0x3db2a158	0.0872218
68	0x3da11b52	0.07866539
69	0xbd688e3b	-0.056776267
70	0x3d446c8c	0.04795508
71	0x3d8dc9d3	0.069232605
72	0x3e137796	0.14401087
73	0xbd2b391d	-0.041802514
74	0x3e1955ed	0.14974184
75	0xbe186a85	-0.14884384
76	0xbe0d3124	-0.13788277
77	0xbdff4145	-0.12463621
78	0x3d96f7ca	0.07371481
79	0x3d7d0a72	0.06177754
80	0xbd6db7de	-0.058036678
81	0xbdcf737b	-0.10129448
82	0x3dbb609d	0.09149287
83	0xbdf5b32d	-0.11997066
84	0xbddc3943	-0.10753109
85	0xbe153597	-0.14571224
86	0x3e44a0f9	0.19202031
87	0x3e3c3dfb	0.18383019
88	0x3bd493ec	0.00648736
89	0x3e08569c	0.13314289
90	0x3e1d5e7e	0.15368077
91	0x3e41ff92	0.18945149
92	0xbdcb362f	-0.09922444
93	0x3da5dd5f	0.08098864
94	0x3d26b223	0.04069723
95	0xbe0f1328	-0.13972151
96	0x3e229733	0.1587799
97	0xbd60bf17	-0.054869737
98	0x3e091f00	0.13390732
99	0xbd5e333c	-0.05424808
100	0xbe11996b	-0.1421868
101	0x3d937d02	0.07201578
102	0x3df94196	0.12170713
103	0xbc619134	-0.013767529
104	0x3d53a503	0.05167104
105	0x3d6533d0	0.055957615
106	0x3dca8e9b	0.09890481
107	0xbe042ff4	-0.12908918
108	0x3e42512f	0.18976282
109	0x3df37274	0.118870646
110	0x3d2e6766	0.042579077
111	0x3d2f7a82	0.042841442
112	0xbdbf2d07	-0.0933476
113	0xbcb46b37	-0.02202378
114	0x3e231d66	0.15929183
115	0x3d7e3277	0.062059846
116	0xbd972dc0	-0.07381773
117	0xbde4b50b	-0.11167344
118	0x3d97ce3d	0.07412384
119	0xbd9e633b	-0.077337705
120	0xbd496581	-0.049169067
121	0x3d2b2142	0.041779764
122	0x3d36a0e8	0.044587046
123	0x3dee29fd	0.116291024
124	0x3df1eb00	0.11812401
125	0xbdd169bd	-0.10225246
126	0x3d1a8ebd	0.037733782
127	0xbd7b0c91	-0.06129128
128	0x3cd74322	0.026277129
129	0x3d94c678	0.072644174
130	0x3daa07fe	0.08302306
131	0x3d986c7b	0.07442566
132	0x3dd78066	0.10522537
133	0x3de1dd8b	0.11028584
134	0x3dfa82e3	0.12231996
135	0x3e762b96	0.24040064
136	0x3e4a4736	0.19753727
137	0xbc6427a9	-0.013925471
138	0xbd751f0f	-0.059844073
139	0xbde5e85b	-0.11225959
140	0x3e020544	0.12697321
141	0x3da76948	0.08174378
142	0x3da8f615	0.082500614
143	0x3e60fef4	0.21972257
144	0x3dc61319	0.09671611
145	0xbd94777b	-0.072493516
146	0x3e16117e	0.1465511
147	0xbc41ae9b	-0.011821414
148	0x3df69891	0.120408185
149	0xbdac27d7	-0.08406036
150	0x3e1a7b2d	0.1508605
151	0x3d54f215	0.05198868
152	0xbdf29aaa	-0.11845906
153	0x3da5d6c0	0.08097601
154	0x3dbac0a3	0.09118774
155	0x3dea8f0f	0.114530675
156	0xbdc4bb05	-0.09605984
157	0x3e561979	0.20908155
158	0xbe15b423	-0.14619498
159	0xbd96c309	-0.07361419
160	0x3e16f7e6	0.14743003
161	0x3cb661bc	0.0222634
162	0x3e00b9b8	0.12570846
163	0x3e0839ae	0.13303253
164	0x3d8692f5	0.065709986
165	0x3e276be6	0.16349754
166	0x3e4552d2	0.19269875
167	0x3da589ee	0.080829486
168	0x3c88de49	0.016707556
169	0xbe0eeedc	-0.13958305
170	0x3e3773aa	0.17915216
171	0xbdad2732	-0.084547415
172	0xbdafd542	-0.085855976
173	0x3c52215b	0.012825335
174	0xbdfb1279	-0.12259383
175	0x3e005ee1	0.12536193
176	0x3e900d3f	0.28135106
177	0xbd1f6ae2	-0.03892029
178	0x3dc71a07	0.09721761
179	0x3d13b1e6	0.03605833
180	0xbd1dc12a	-0.038514294
181	0xbc4ac1fd	-0.012375352
182	0x3e2ed61f	0.17073868
183	0x3d58a2b9	0.05288956
184	0xbded3d50	-0.1158396
185	0x3d245edb	0.040129524
186	0x3e212b65	0.1573921
187	0x3e220eb6	0.15825924
188	0x3e371c45	0.17881878
189	0x3e741efa	0.23839942
190	0xbe39435a	-0.18092099
191	0x3dc9448c	0.098275274
192	0xbe2aad42	-0.16667655
193	0xbdcd218a	-0.10016163
194	0xbe69af71	-0.22820832
195	0xbde8ba06	-0.11363606
196	0x3e7e4190	0.24829698
197	0xbd7f3321	-0.06230462
198	0x3de93d9c	0.11388704
199	0xbd8de424	-0.0692828
200	0x3e11db06	0.14243707
201	0xbd995d15	-0.07488457
202	0xbd43ab96	-0.04777106
203	0x3d75acf0	0.05997938
204	0x3d9e77d2	0.07737698
205	0x3eaa1100	0.33216095
206	0x3da0b8f6	0.078477785
207	0xbd929085	-0.07156471
208	0xbe952183	-0.2912713
209	0xbdf821c1	-0.12115813
210	0xbd984f8b	-0.074370466
211	0xbcc43d5f	-0.023955045
212	0xbd009816	-0.03139504
213	0x3e7e2291	0.24817874
214	0x3cc23270	0.023705691
215	0xbd6aa719	-0.057288263
216	0xbcc0241d	-0.02345472
217	0x3e5c2a81	0.21500589
218	0xbe80c0fd	-0.25147238
219	0xbd52f678	-0.051504582
220	0xbd6adc1d	-0.057338823
221	0xbdf85da6	-0.12127237
222	0xbe5dc6a3	-0.21657805
223	0xbd8f5141	-0.0699792
224	0xbdf1225e	-0.11774133
225	0x3ccebb94	0.025235929
226	0xbde5e3ff	-0.112251274
227	0x3d13222e	0.03592127
228	0xbd1900ee	-0.037354402
229	0x3c204a75	0.009783377
230	0x3b895b9f	0.0041918303
231	0xbe034521	-0.1281934
232	0x3d80738d	0.062720396
233	0xbda160ed	-0.07879815
234	0x3e17a569	0.14809193
235	0xbe3aadaf	-0.18230318
236	0x3e203f0c	0.1564905
237	0xbe5c2019	-0.2149662
238	0x3df1beb3	0.11803951
239	0x3dcd61dd	0.100284316
240	0xbbf6e7e6	-0.0075349687
241	0x3e4afbc4	0.19822603
242	0x3df7c280	0.12097645
243	0x3ca747c7	0.020419968
244	0xbe264d8c	-0.1624052
245	0xbcb813ee	-0.02247044
246	0xbd2cfd61	-0.04223383
247	0xbcad110d	-0.021126295
248	0x3d49af0f	0.049239215
249	0xbdfd0b02	-0.12355615
250	0x3dc82a1f	0.09773659
251	0x3d027041	0.031845335
252	0x3e3f456f	0.1867883
253	0xbe062b4d	-0.13102455
254	0xbe4aa5a8	-0.19789755
255	0x3d7f218d	0.062287856

decoder_net.6.bias f4 [32]
0	0xbdcadcec	-0.09905419
1	0x3ba83112	0.0051328028
2	0xbbb12d8e	-0.005407042
3	0x3e101079	0.14068784
4	0xbc876845	-0.016529212
5	0x3e0eeb5e	0.13956973
6	0x3e349090	0.17633271
7	0x3d030a27	0.031992104
8	0xbde0a787	-0.10969453
9	0x3e153056	0.1456922
10	0xbdd72f4c	-0.10507068
11	0x3cbc4d1a	0.022985984
12	0x3d6b826f	0.057497438
13	0xbde71497	-0.11283224
14	0x3c6c39f4	0.014418114
15	0x3dcbf8f6	0.09959595
16	0xbe1163ff	-0.14198302
17	0x3e15de53	0.14635591
18	0xbc2c9848	-0.010534354
19	0xbddbe435	-0.107368864
20	0xbd47bd0e	-0.04876428
21	0xbc7bc1a8	-0.0153659955
22	0xbddbe443	-0.10736897
23	0xbd8a96ff	-0.067670815
24	0x3b8fe1d5	0.004390935
25	0xbdae06f5	-0.08497421
26	0xbe1cce19	-0.15312995
27	0xbd34d44c	-0.044147775
28	0x3e04cfac	0.12969846
29	0x3dcc47f5	0.09974662
30	0x3ca0115a	0.019539524
31	0xbe1a4017	-0.15063511

decoder_net.8.weight f4 [32, 32]
0	0xbd8861af	-0.06659257
1	0xbc381858	-0.011236273
2	0xbcc32a71	-0.023823949
3	0x3dacf6c7	0.084455065
4	0x3df9424c	0.12170848
5	0x3e3ac519	0.1823925
6	0xbe1e6f5f	-0.15472172
7	0xbc38f7f1	-0.011289583
8	0xbe184645	-0.14870556
9	0xbde55768	-0.11198312
10	0x3dbf25fb	0.09333416
11	0x3b40feed	0.0029448823
12	0x3e295979	0.16538037
13	0xbdf1fbb7	-0.11815589
14	0x3d8a186a	0.06742938
15	0x3dbadded	0.0912436
16	0x3e16e669	0.14736332
17	0xbd49030b	-0.049075168
18	0xbdd5d478	-0.10440916
19	0x3e38d64f	0.18050502
20	0x3b8fd3a2	0.0043892423
21	0xbd9960cd	-0.074891664
22	0x3dd2dba4	0.102957994
23	0x3dce9269	0.10086519
24	0xbd113f9a	-0.035461046
25	0x3daf2c1f	0.08553337
26	0x3e0897d2	0.13339165
27	0x3dbb6cca	0.09151609
28	0xbde74af2	-0.112935916
29	0x3e203960	0.15646887
30	0xbcdadefa	-0.026717652
31	0x3e37b24a	0.17939106
32	0xbe781034	-0.24224931
33	0xbcac44f4	-0.021028973
34	0xbcbd0546	-0.023073804
35	0xbda94165	-0.08264426
36	0xbdce62e3	-0.10077455
37	0xbdead3bd	-0.11466167
38	0x3e696652	0.22792938
39	0xbe839464	-0.2569915
40	0x3d13e768	0.036109358
41	0xbde32f88	-0.1109305
42	0xbe83c02e	-0.2573256
43	0x3e8884c2	0.26663786
44	0xbdae1623	-0.08500316
45	0x3db1a3fb	0.08673855
46	0x3dc4a674	0.09602061
47	0xbe08fcde	-0.13377711
48	0x3dd77847	0.10520988
49	0x3cc4910a	0.023994941
50	0x3e4b59ed	0.19858523
51	0xbe62affc	-0.22137445
52	0x3d4f817c	0.050660595
53	0xbd5be703	-0.053687107
54	0x3e3ccbf7	0.18437181
55	0xbbb52631	-0.0055282344
56	0x3e100296	0.14063486
57	0x3d43563f	0.047689673
58	0xbb88cb46	-0.0041746227
59	0xbe3568bc	-0.17715734
60	0xbe27f5a2	-0.16402295
61	0xbe8d0cfc	-0.2754897
62	0xbb8309f1	-0.003998988
63	0xbe11c538	-0.14235389
64	0xbddbb764	-0.10728338
65	0x3cda2d2e	0.026632871
66	0x3d0d71b1	0.034532253
67	0x3e0f91b2	0.14020422
68	0xbd774054	-0.060364082
69	0xbc4d6825	-0.012537037
70	0xbe427b1b	-0.18992274
71	0x3e54be2f	0.20775674
72	0xbe650022	-0.22363332
73	0x3c829694	0.015940942
74	0x3e6eb498	0.23311079
75	0x3dd4ac24	0.10384396
76	0x3d458597	0.048223104
77	0xbe29cf98	-0.16583097
78	0xbc95b03d	-0.018272514
79	0x3df90ec5	0.1216102
80	0xbd0e1f99	-0.034698103
81	0x3ded070a	0.11573608
82	0x3d88eac2	0.066854015
83	0x3de8e979	0.113726564
84	0x3d7c10b6	0.061539374
85	0xbe235420	-0.1595006
86	0xbdc09f36	-0.09405367
87	0x3da4da21	0.08049417
88	0xbd809e5b	-0.06280204
89	0xbc2b5fdd	-0.010459867
90	0xbcc57145	-0.024101863
91	0xbdf9d380	-0.121985435
92	0xbc8013e5	-0.015634486
93	0x3ba8f5e6	0.0051562665
94	0xbe367a7e	-0.17820165
95	0x3d049c4b	0.032375615
96	0x3df5b6a4	0.119977266
97	0xbc518f02	-0.012790443
98	0xbd672016	-0.056427084
99	0xbca9d7d2	-0.020732794
100	0xbd86ce8b	-0.06582364
101	0x3b742f14	0.0037259506
102	0x3de3e416	0.11127488
103	0x3d2c0e9d	0.042006124
104	0xbcd400b7	-0.025879247
105	0x3d1531b2	0.036424346
106	0x3e3f3ab9	0.18674745
107	0xbd45aa1b	-0.04825793
108	0xbd99cfaa	-0.07510312
109	0xbe271552	-0.16316727
110	0x3db9c5ee	0.09070955
111	0x3e11fb24	0.14255959
112	0x3daf632d	0.08563838
113	0x3dfc689e	0.12324642
114	0xbe596ab6	-0.21232113
115	0x3e1d765c	0.15377182
116	0xbd695f44	-0.056975618
117	0x3d36aebf	0.044600245
118	0x3d84f538	0.06492084
119	0x3d192694	0.037390307
120	0xbe1333f7	-0.14375292
121	0xbc61c6cc	-0.013780307
122	0xbd051aac	-0.03249614
123	0xbe14fa0b	-0.14548509
124	0x3cec6a02	0.028859142
125	0xbdbde281	-0.09271718
126	0x3d1d8a79	0.038462136
127	0xbd88a537	-0.06672137
128	0x3dac4b9f	0.08412861
129	0x3e16ca26	0.14725551
130	0x3d250a26	0.04029288
131	0xbd6be986	-0.057595752
132	0x3d2457d2	0.040122814
133	0xbd7a2876	-0.061073743
134	0xbd9214be	-0.071328625
135	0xbc839a22	-0.016064707
136	0xbd7499bf	-0.059716936
137	0xbc213679	-0.009839647
138	0x3d852e0a	0.06502922
139	0xbe5f0bcb	-0.21781842
140	0xbdb3044f	-0.08741056
141	0xbdbbdd77	-0.091731004
142	0xbd65b9f3	-0.056085538
143	0xbdb94ac6	-0.09047465
144	0x3dc4271a	0.095777705
145	0x3cb3a5bd	0.021929616
146	0xbe01f1c6	-0.12689885
147	0x3e36b4c2	0.17842391
148	0x3e2aa319	0.1666378
149	0xbe099e08	-0.1343919
150	0xbe72504d	-0.23663445
151	0xbd9d6616	-0.07685487
152	0xbe006f6d	-0.12542506
153	0xbe1a4459	-0.15065135
154	0xbd21b634	-0.039480403
155	0x3e12e008	0.14343274
156	0x3e40dc69	0.1883408
157	0x3c29d4da	0.010365689
158	0xbd940219	-0.072269626
159	0xbbcef553	-0.006315866
160	0xbe009acf	-0.12559055
161	0x3d3a16fa	0.04543207
162	0x3e237ef8	0.15966403
163	0xbd62b84c	-0.05535154
164	0x3e65aef1	0.22430016
165	0x3c1abf43	0.009445014
166	0xbdb9c44d	-0.090706445
167	0xbdabe062	-0.08392407
168	0xbd7061a9	-0.058686886
169	0xbc814356	-0.015779179
170	0x3cfd0981	0.03088832
171	0xbe0c1b20	-0.13682222
172	0x3d77896d	0.060433794
173	0xbe0002e5	-0.12501104
174	0x3e264a70	0.16239333
175	0x3c1960ef	0.00936149
176	0x3e1e73e2	0.15473893
177	0xbdf12982	-0.11775495
178	0xbd426837	-0.04746267
179	0xbd42f415	-0.047596056
180	0x3ba7af15	0.005117307
181	0xbe109751	-0.14120223
182	0xbc589cf9	-0.013221019
183	0x3dbd78b4	0.09251538
184	0x3d4b073e	0.049567454
185	0x3e02a2b2	0.12757376
186	0x3e1a2601	0.1505356
187	0xbe041370	-0.1289804
188	0x3db66225	0.08905438
189	0x3db5e1a3	0.088809274
190	0xbb244d3b	-0.0025070447
191	0xbdfbd50a	-0.12296493
192	0xbd35d3cb	-0.044391435
193	0x3bfd710f	0.007734425
194	0x3d2aa563	0.04166163
195	0xbd85709f	-0.065156214
196	0xbe0ae550	-0.13564038
197	0x3ddcfc5c	0.10790321
198	0x3e578b18	0.21049154
199	0xbe195c9f	-0.14976738
200	0x3d01881b	0.03162394
201	0xbb8c3c7c	-0.0042796712
202	0x3e0ba328	0.13636458
203	0x3e430477	0.19044672
204	0xbda49a56	-0.0803725
205	0x3da87e5f	0.082272284
206	0x3de4adac	0.11165938
207	0xbdb3f2cd	-0.08786545
208	0x3da1c6b6	0.07899229
209	0xbbfaa4de	-0.007649048
210	0xbd36c8af	-0.04462498
211	0xbe24bef0	-0.16088462
212	0xbc0dcc23	-0.008654627
213	0xbccdec16	-0.025136989
214	0xbd828b64	-0.06374243
215	0xbe2fdf1c	-0.17174953
216	0x3cf3c38e	0.029756334
217	0x3e50b0f4	0.20380002
218	0xbbf4490b	-0.0074549965
219	0xbd9bb491	-0.076028
220	0xbe3f8952	-0.18704727
221	0xbddb0344	-0.10693982
222	0x3e1bf37e	0.15229604
223	0x3dec166c	0.11527714
224	0x3cd458e1	0.025921287
225	0x3d9c7edf	0.07641386
226	0x3e08f3df	0.1337428
227	0xbe18a925	-0.14908274
228	0x3ddb38ac	0.10704169
229	0xbdb9e880	-0.09077549
230	0xbe174d98	-0.14775693
231	0xbe4bbc65	-0.19896086
232	0x3d75caf4	0.060008004
233	0x3d9a022c	0.075199455
234	0x3d601755	0.05470975
235	0x3e02c06f	0.1276872
236	0xbe18da89	-0.14927115
237	0xbdfed34a	-0.12442644
238	0xbdaee7b7	-0.0854029
239	0x3dd7b5b0	0.10532701
240	0x3dcbf66a	0.09959109
241	0x3dda0576	0.10645573
242	0xbe22b028	-0.15887511
243	0x3dffcf9e	0.12490772
244	0xbe1777bf	-0.14791773
245	0x3e4f850d	0.20265599
246	0x3df77f03	0.120847724
247	0xbda48f79	-0.08035178
248	0x3d880aea	0.06642707
249	0xbddd1ed0	-0.10796893
250	0x3ce6c376	0.028169375
251	0x3c8b4ae7	0.01700349
252	0xbd346ee0	-0.04405105
253	0xbddc2b05	-0.10750393
254	0x3d02a967	0.031899836
255	0xbe2450a6	-0.1604639

decoder_net.8.bias f4 [32]
0	0xbd681abd	-0.056666125
1	0x3d990511	0.074716695
2	0xbdc571fd	-0.09640882
3	0xbd932beb	-0.07186111
4	0xbd97f9b9	-0.07420678
5	0x3dcc6586	0.099803016
6	0x3d00b4df	0.031422492
7	0xbbbe6cc0	-0.005811304
8	0xbcae0ce2	-0.021246377
9	0x3df8d932	0.12150802
10	0x3d8bfe0b	0.06835564
11	0xbdb75310	-0.0895139
12	0xbe2c3120	-0.16815615
13	0x3dbd8f2e	0.09255825
14	0x3dc65a22	0.0968516
15	0xbc12bfd2	-0.008956866
16	0x3d9a1b74	0.075247675
17	0xbc91d594	-0.017802037
18	0xbdd98786	-0.10621552
19	0xbe0e4e6e	-0.13897106
20	0x3dd164b9	0.102242894
21	0x3d666b28	0.056254536
22	0xbcdb6fc9	-0.026786702
23	0xbd462dc4	-0.04838349
24	0x3e2844ec	0.16432542
25	0x3d42b3f9	0.047534917
26	0xbcc17760	-0.023616493
27	0xbcd52eef	-0.026023356
28	0x3d80bc9f	0.062859766
29	0xbd38513c	-0.044999346
30	0x3de30d7a	0.11086555
31	0x3ddece4b	0.10879191

decoder_net.10.weight f4 [5, 32]
0	0xbda8fcd8	-0.08251351
1	0x3d9ace71	0.07558907
2	0xbe0ec3c3	-0.13941865
3	0x3db6464a	0.08900125
4	0xbdc23ace	-0.09483872
5	0x3df80787	0.12110811
6	0xbba2e57d	-0.004971205
7	0x3df5c7b7	0.12000983
8	0x3d64ba68	0.055841833
9	0x3e1cb985	0.15305145
10	0xbdd00ff1	-0.101592906
11	0xbd2e18d9	-0.042504165
12	0x3d0371dc	0.032091007
13	0xbaa36538	-0.0012466079
14	0x3e19e5e3	0.15029101
15	0xbbaaf8fd	-0.00521767
16	0x3d496b5f	0.049174663
17	0xbe1699e0	-0.14707136
18	0x3b3e62fb	0.0029050696
19	0x3d8dc307	0.06921964
20	0x3cb83985	0.022488365
21	0xbd929394	-0.071570545
22	0xbe1f0e02	-0.15532687
23	0x3d877c20	0.06615472
24	0xbdfa2b92	-0.12215342
25	0xbdc1966d	-0.094525196
26	0x3e0d064c	0.13771933
27	0x3e0edb8f	0.13950942
28	0x3cb7c7b5	0.022434095
29	0xbcb92ebd	-0.022605294
30	0xbcd6d507	-0.026224626
31	0x3db7c412	0.08972944
32	0x3aaee761	0.0013344103
33	0x3cac1e40	0.021010518
34	0xbd4bd3f1	-0.04976267
35	0xbd1de6e3	-0.03855027
36	0xbde55247	-0.11197334
37	0xbe2d513f	-0.16925524
38	0xbd85b223	-0.065281175
39	0x3d052c80	0.03251314
40	0xbdfeb65d	-0.12437127
41	0xbde78b92	-0.11305918
42	0xbd656441	-0.056003813
43	0x3d8f540a	0.06998451
44	0x3e259a7b	0.16172211
45	0x3d85e4b0	0.06537759
46	0x3dc98757	0.09840267
47	0x3d1c3081	0.038132194
48	0x3d2dffbb	0.04248021
49	0x3d90c133	0.070681
50	0xbba0ee18	-0.0049111955
51	0x3d5db821	0.054130677
52	0x3d1a5810	0.03768164
53	0xbe2105bb	-0.15724842
54	0xbd7e76a2	-0.062124856
55	0x3c86fd00	0.016478062
56	0xbd68737c	-0.05675076
57	0x3d27c662	0.040960677
58	0xbd99a3bd	-0.07501934
59	0x3e0f538d	0.13996716
60	0xbc802387	-0.01564194
61	0xbd69febf	-0.05712771
62	0x3c9f08fb	0.019413462
63	0x3e04592b	0.1292464
64	0x3d33d206	0.043901466
65	0x3b8c61a8	0.0042841025
66	0xb98a40ab	-0.00026369593
67	0xbd8f9552	-0.070109025
68	0x3d4271eb	0.047471922
69	0x3e05dc7a	0.13072386
70	0xbdd43c9a	-0.10363121
71	0xbd61863b	-0.055059653
72	0x3ce626b0	0.02809462
73	0x3d09a9f1	0.033609334
74	0x3d9a0f27	0.07522421
75	0x3d9e189c	0.077195376
76	0x3d185b70	0.037196577
77	0xbdd11b0f	-0.10210239
78	0xbd2250df	-0.039627906
79	0xbc0e88ce	-0.008699609
80	0x3dca5607	0.0987969
81	0xbd53e7f2	-0.051734872
82	0x3d505d50	0.05087024
83	0xbd62dbd7	-0.055385437
84	0xbdab47a1	-0.083632715
85	0xbd83522d	-0.06412158
86	0x3ccf1b62	0.025281612
87	0x3c884273	0.016633248
88	0x3e0ccd1d	0.1375012
89	0xbde3eafa	-0.111288026
90	0xbd738f67	-0.05946293
91	0x3e01b86f	0.12668012
92	0x3e071e5e	0.13195178
93	0x3c82b8b1	0.015957208
94	0xbd5cf020	-0.05393994
95	0x3e04c828	0.12966979
96	0x3e1b332d	0.15156241
97	0x3caff726	0.021480154
98	0x3c87a5a5	0.016558478
99	0xbcee7388	-0.029107824
100	0xbd19a12a	-0.037507214
101	0xbd086008	-0.033294708
102	0xbe21cf64	-0.1580177
103	0x3e1eec27	0.15519772
104	0xbcc3577b	-0.023845425
105	0xbdc946f1	-0.09827984
106	0xbe2b6021	-0.16735889
107	0x3e247aa0	0.16062403
108	0xbe07dfdd	-0.13268991
109	0xbcf3083d	-0.029667014
110	0x3d5fc119	0.05462751
111	0xbc941fe3	-0.018081611
112	0xbd120b4c	-0.035655305
113	0x3d8eef2d	0.06979213
114	0xbd63998d	-0.05556636
115	0x3e3ba194	0.18323356
116	0xbe24ca86	-0.16092882
117	0x3d2dd2cf	0.04243737
118	0xbde12269	-0.10992891
119	0x3d7da6b4	0.06192656
120	0x3ddde7d6	0.10835235
121	0x3d28afe5	0.04118337
122	0xbcdc0c4e	-0.026861336
123	0xbe028d93	-0.12749319
124	0x3d13430c	0.035952613
125	0xbd9f6845	-0.0778356
126	0x3cce1b70	0.025159568
127	0xbdeac693	-0.11463656
128	0x3e8ab6cc	0.27092588
129	0xbf2f373c	-0.68443656
130	0x3f1fa119	0.6235519
131	0x3e8c1095	0.273564
132	0x3f0dcb01	0.55387884
133	0xbdb1180f	-0.08647167
134	0xbf3018b2	-0.6878768
135	0xbe8e2588	-0.2776301
136	0x3eff8977	0.49909565
137	0x3e8f0f50	0.2794137
138	0x3e20244c	0.15638846
139	0xbe8f7606	-0.28019732
140	0x3da1bc9a	0.07897301
141	0x3f127d12	0.5722209
142	0xbeefa86e	-0.4680819
143	0x3f361cd3	0.7113773
144	0xbf14a12b	-0.5805842
145	0x3f21b852	0.63171875
146	0x3f25e31d	0.6479967
147	0x3f18423a	0.59476054
148	0x3e006d2f	0.1254165
149	0xbf2603d4	-0.6484959
150	0xbee189e3	-0.44050512
151	0x3f066eba	0.52512705
152	0xbed2ca12	-0.41169792
153	0x3f1c9c08	0.61175585
154	0x3f2ada5c	0.6673944
155	0xbf0d965f	-0.55307573
156	0x3f1bb826	0.60827863
157	0x3f01c403	0.50689715
158	0xbf1c5576	-0.61067903
159	0x3eef1a93	0.46699962

decoder_net.10.bias f4 [5]
0	0x3cfcbe85	0.030852566
1	0x3cc6f715	0.02428774
2	0xbcbca6d9	-0.023028778
3	0x3d073293	0.033007216
4	0xbc78cf71	-0.015186177
