Nash DQN - Updated/pt_files/Nash_DQN/Value_Net.pt (torch, 21505 bytes, 11 tensors)

decoder_net.0.weight f4 [32, 5]
00000000: 0dff 51bd 6144 d2be a2c5 3ebe 04a9 963e
00000010: e40c 5bbc a0f9 0d3e 2e93 0b3f 504d 143e
00000020: 7f2f d7bd 78d6 50be 709a a83e 81bb a83e
00000030: f635 49be 593a ccbe 3079 e33d fcf6 153e
00000040: f3f4 5cbe 2f44 eebe 47bf 843e 17e2 1fbe
00000050: 39e1 9dbe d933 803e 6505 abbe d266 86bd
00000060: 1f29 9bbd f7b7 a33e 6c01 173f 3d11 b53e
00000070: 44b0 d23d d260 9c3e 2beb e83e b043 57bf
00000080: 0c35 463e 9d55 c0be 5790 5e3d f904 ae3e
00000090: 7c9b 4bbe 0684 823e 7d0e 893e 58f5 b63e
000000a0: 2bce 973e 6411 1fbf 1f39 d8bd b49a b0bd
000000b0: 4c12 e33c 918e c13e 25da d3be 8fa4 72be
000000c0: 9ee0 adbe 70aa b13d fd0c 913e c3da 1ebe
000000d0: 4d2e 023f e52c 8b3e c3a2 d1bc 3c9c dd3e
000000e0: ea9f c0bd a31c a33d 2fe3 803e 08c5 a4be
000000f0: cfae c7be 8fb5 3d3e 56d6 823e 31ac 00be
00000100: e554 63be 3b58 c3be f416 20be a4f7 fcbd
00000110: 37bd c63d 20b1 603e 28ac 1e3d 0d7f b8be
00000120: ce68 353e 51d8 80be 11c7 a73e 68d1 133e
00000130: eb44 49be aee2 88bb befa 48be b170 763e
00000140: 1579 9ebb 5a3b c73e 6c3d 6e3e a478 c03c
00000150: 18e6 453e 351c c63e ce51 4c3f af51 79be
00000160: c8e1 193e 82cb 4dbe bba3 4bbe c1cb 653e
00000170: c041 b33e d37a 483e 1f72 d0bb 4f9b 03bf
00000180: 6e9d f7be 57e7 a73e 2f13 c43e d01a 4e3d
00000190: f243 833d bc5f 8ebd 4e7f 8fbe 9c03 eb3d
000001a0: 43c7 c93e 2bdf ec3e 8dcc 583d 70ed 8a3e
000001b0: 9052 24be 4fc9 ecbe 4151 74be f860 6e3e
000001c0: 1dfc 923e dddd 2a3c 9990 2b3d 3b76 653c
000001d0: 15f7 43be 13d3 903d 5040 03be 2f64 823e
000001e0: 2ad0 373e 476d 243f 8217 ce3e e0de 16bd
000001f0: 85e4 49be afd6 0abe 7f57 6ebe 082a 04bf
00000200: f1bb 81be 67ac 01bd 6932 ce3e e30d 433e
00000210: 2df1 323e 4382 1ebe 37d8 103e 5af6 df3d
00000220: ac85 cabd ded2 273d 145a a33d bc2e 97be
00000230: b2e6 ab3e 720f 003f 4b5c 80be c2e5 d43e
00000240: 7ae7 1c3e 2be9 02bf 0afe 1bbf 9e19 0f3f
00000250: c949 2ebd f286 5a3d 7e0d b0be 4fd6 f23d
00000260: f8d9 ccbe 4240 07be 6c5d 14be e435 f9bd
00000270: ec8a 99bd e38f afbe 8d38 31be 2604 72be
-0.051268626 -0.41067794 -0.18630078 0.29425824 -0.013369773 0.13864756 0.54521453 0.14482617
-0.10507106 -0.20394313 0.32930326 0.32955554 -0.1964949 -0.39888266 0.11107099 0.14644998
-0.21577816 -0.46536395 0.25927183 -0.1561359 -0.30835894 0.25039557 -0.33402553 -0.0656258
-0.075762026 0.31976292 0.58986545 0.35364714 0.10287526 0.30542618 0.4549192 -0.8408766
0.19356173 -0.37565318 0.054336872 0.3398817 -0.19883531 0.2549135 0.26768866 0.35734057
0.2964948 -0.6213591 -0.1055777 -0.08623257 0.027718686 0.37804082 -0.4137737 -0.23695587
-0.33960432 0.086750865 0.28330222 -0.15513138 0.508519 0.2718269 -0.025590306 0.4328326
-0.09405501 0.079644464 0.25173327 -0.32181573 -0.39000556 0.1852629 0.2555415 -0.12565686
-0.22200353 -0.38153252 -0.15633756 -0.12351921 0.097040586 0.21942568 0.0387384 -0.36034432
0.17715761 -0.25165036 0.32769063 0.14435351 -0.19655196 -0.004177413 -0.196269 0.24066426
-0.0048362114 0.3891247 0.23265618 0.023495026 0.19326055 0.38693395 0.79812324 -0.24347566
0.15027535 -0.20097163 -0.19886677 0.22441007 0.350111 0.19578104 -0.0063612605 -0.5140886
-0.48362297 0.32793686 0.38295886 0.05031854 0.06409444 -0.06951854 -0.28026813 0.11475298
0.39409837 0.46264014 0.05292945 0.27134275 -0.1604712 -0.46247336 -0.23859121 0.23279178
0.28707972 0.010428873 0.041885946 0.014005239 -0.19137223 0.07071509 -0.12817502 0.2546706
0.17950502 0.64229244 0.4025231 -0.036833644 -0.1971608 -0.13558458 -0.23275565 -0.51626635
-0.253387 -0.031658556 0.40272835 0.19048266 0.17474814 -0.15479378 0.1414498 0.1093566
-0.09888777 0.040972583 0.079761654 -0.29527843 0.33574444 0.5002357 -0.25070414 0.4158154
0.15322676 -0.51137036 -0.6093451 0.55898464 -0.042550836 0.05335135 -0.34385294 0.11857282
-0.40010047 -0.13208106 -0.14488763 -0.12168482 -0.074972 -0.34289464 -0.17306729 -0.23634395

decoder_net.0.bias f4 [32]
00000000: d1b7 abbe 4683 303e 2eeb 3a3e 1591 703e
00000010: ce9d 97bd 23d0 c53e f212 61be 0457 6d3d
00000020: 5d26 5f3d 7da2 f33d be6c 1abd 1de6 f33d
00000030: 576d e1be 07e2 383d 8d8d 95be d684 95be
00000040: 6324 a53e ed4f 053e 36b9 86be 31bb e13c
00000050: a7b6 e53e 1803 c23d 461a 89be 8f84 f83e
00000060: 6a05 9b3e ea86 92be f3d0 81be 9df3 4fbe
00000070: 180a 16be 0bf4 3fbe 9538 433d 458b b93d
-0.33538678 0.17237577 0.18253776 0.23492844 -0.07403146 0.38635358 -0.21979883 0.057944313
0.054479945 0.118962266 -0.03770136 0.11909125 -0.44028732 0.04513743 -0.29209557 -0.29202908
0.32254323 0.1301877 -0.2631318 0.02755508 0.44865915 0.09473246 -0.26777858 0.48538634
0.30277568 -0.28618556 -0.25354728 -0.20307775 -0.14652288 -0.18745439 0.047661383 0.09059767

decoder_net.2.weight f4 [32, 32]
00000000: 18a7 8bbd 9287 173e 7237 403d bc9e cfb9
00000010: 0f3c 663e 26bc d33d be01 99be 4e72 a1bc
00000020: a219 6fbe 4d0f 3cbe 710f 1c3e e9ac 8fbd
00000030: 4875 253e 6393 13bc 8dc2 39be d79b b0bd
00000040: 485c 423e 71e8 c33d f04b 0d3e c4af c3bd
00000050: d69d 76bd ca69 583d d467 1f3e 13dc ab3d
00000060: dfa0 493e cfac 843d 58c6 e0bc 7077 fc3d
00000070: 9b6c 75be 139e 05be 566a 4f3d 1f0a 77bc
00000080: b776 593e 85b9 3f3d ffa5 113e d8b9 d73d
00000090: 3ab4 4abc e367 ab3d a232 0bbe c4f7 a5bd
000000a0: 21a3 ca3d 1c98 77bd b81f 453e 269d d9bd
000000b0: 9d89 68bc 9f6f 403e df8d fcbd 3a07 2fbe
000000c0: 5292 17bd 355b 30be 541c a13d e9e8 13be
000000d0: 2114 d3ba b88c c23b cde9 593e e755 1bbe
000000e0: 0115 333e 48e6 4e3d 08ea a3bd 8011 bd3d
000000f0: cafb d23c d9ff ddbd 9768 403e 156d f63d
00000100: 9ab0 dc3d 08f8 ffbd 3acb 0b3e 34d2 23be
00000110: 979c a2bd 40e2 9cbd ace7 7e3e ae66 133e
00000120: 0bbe 96bd a57c 3fbe a8a7 aabc df08 1b3a
00000130: abed 06bd 1b24 083e af4b bc3d 0992 f53c
00000140: 065b 3d3e db80 543e 4d8b 7ebd b720 a0bd
00000150: a2c1 98bb 4d66 d8bd 995c 3a3c f69c 74bd
00000160: 6bab 133e a8ec 3dbe 60dd 83bd 352a 58be
00000170: b1e7 573e c27b 103e baf5 393d f1fe f43c
00000180: d78a 7c3d 0752 b43d f43b 4c3e 62a7 863d
00000190: 1393 16be 1d5e b33c e871 f23c c3e0 393e
000001a0: b14a 343e 4917 453e 6c60 323e 456f 143e
000001b0: 9efa 143e 7e48 213e 92cb 9a3d b2c0 763e
000001c0: 4cf9 1b3e b38b 963d 6c14 da3d b9f4 b0bd
000001d0: 20d8 833b c89f 233e 4d93 65bd f9a7 443d
000001e0: 05c5 aebd ab65 b63d a104 3f3e 2ca1 aabd
000001f0: 2687 22be 580b 483e 7f2d 913b 105d 603d
00000200: 7d0c 01be e862 a8bd 5cd9 a7bc 2046 a2bb
00000210: 058e 8f3c 04c1 88bd 8611 be3e 4f6a 47bd
00000220: 2465 e1bc 2022 5fbd 91be 663e 552c 1b3c
00000230: 3e2b 773d fea7 91be 16b1 9c3e 0f60 133e
00000240: efff ecbd 5c57 0d3c f40a e83d 0775 243d
00000250: b415 b2bd 738e 58bd f727 e8bd 5757 c53b
00000260: 74ca c73c 4577 e1bc 9f79 b23d 6b75 953d
00000270: 5f5c 003e 1c70 573d 84e5 c93d e484 a2bc
00000280: 373a 0b3e 60bd f5bc 3ebb 9f3d f1b2 c0bd
00000290: 094a f73d ccb1 ed3d 2533 8fbe 6f4f fabd
000002a0: 8d22 f6bd 2479 183d 2791 fd3c 449d 94bd
000002b0: aced d93d 5097 b63d a8d0 813d 9488 14bd
000002c0: 9025 503d d247 c0bd 2f58 ac3d 139b 5b3e
000002d0: 7a5b f6bd e5e0 f93d ce75 e93d 4a88 0b3e
000002e0: 7012 d2bd a4be 043d 11ad ca3d e27c 2fbe
000002f0: c332 323d c03c b03d 32bf f63d 193e 393d
00000300: c7da 82ba 5e43 c63d fe4f b9bc 95bd 39be
00000310: dbe8 5cbd c17b b6bd 8f61 b23c 5351 c43d
00000320: 5e2a 4c3d 7fbf 76be d239 eb3b 2b48 8abe
00000330: f6a7 c93d 3b6d d13d dd45 5ebd 76a6 4ebe
00000340: 8828 a8bd 3594 c0be aa3b 1d3e 18c3 1a3e
00000350: 670f 173d b183 c7bd 7924 a93b 2d8a 043e
00000360: 5241 0c3e f3b1 2bbe 041f 043d f06d 2d3d
00000370: dc6c 1ebe 6950 aebd e67c eb3d a776 ea3d
00000380: 4a6f 8a3e 7725 1d3e df8b 743e 59a2 493e
00000390: a646 e33d f602 bd3c 3eb5 123e edaf c93c
000003a0: 5ad8 383e 4139 863e f0d8 4a3e 5e16 933e
000003b0: 03c8 8ebd 3aee 5cbe 12a7 fbbd cb2e 1b3c
000003c0: 24ca e0bb ea71 6c3e 28ae aebd 2bdf 8a3d
000003d0: 5593 2c3e 0151 403e 3114 4e3e 9727 55be
000003e0: 302e f73d be74 ad3d e565 9ebd 0c30 cfbd
000003f0: 07e0 f03d 4ce7 21be 6c20 493e 3029 8b3c
-0.0681898 0.1479781 0.046927877 -0.00039600383 0.22483848 0.10338621 -0.29884142 -0.019707825
-0.23349622 -0.18365212 0.15240265 -0.07015402 0.1615802 -0.009007308 -0.18140621 -0.08623474
0.18980515 0.09565819 0.13798499 -0.09555009 -0.060209118 0.052835263 0.15566951 0.08391585
0.19690274 0.06478273 -0.027438328 0.123274684 -0.23967211 -0.13048582 0.05063852 -0.015078097
0.21236692 0.046807785 0.14223479 0.10533494 -0.012372071 0.08369424 -0.13593534 -0.08103898
0.098943956 -0.060447797 0.19250381 -0.10625677 -0.014192966 0.1879258 -0.12331747 -0.170926
-0.037004776 -0.17222293 0.07866731 -0.14444317 -0.0016104021 0.005937185 0.21280594 -0.15169488
0.17488481 0.050512582 -0.08003622 0.092318535 0.025754828 -0.10839815 0.18789898 0.120325245
0.107758716 -0.1249848 0.13651744 -0.15998155 -0.079400234 -0.07660341 0.24893063 0.14394638
-0.073604666 -0.18699892 -0.020831898 0.00059141027 -0.0329415 0.13295023 0.09194123 0.029976862
0.18491754 0.2075228 -0.062144566 -0.0781874 -0.0046617547 -0.10566387 0.011374616 -0.059720002
0.1442086 -0.18547308 -0.06438708 -0.2110985 0.21084477 0.1410971 0.04540036 0.029906722
0.061655845 0.08804708 0.19944745 0.065748945 -0.14704542 0.021895463 0.02959533 0.18152146
0.17606618 0.19247164 0.17419595 0.14495571 0.14548728 0.1575031 0.07558359 0.24096945
0.15231818 0.07350864 0.106484264 -0.08640427 0.004023567 0.1597892 -0.05604868 0.048011754
-0.08533672 0.089061104 0.1865411 -0.08331522 -0.15871868 0.19535577 0.0044304724 0.05477625
-0.1260242 -0.0822199 -0.020489387 -0.004952207 0.017523775 -0.0667744 0.37122744 -0.04868537
-0.027514048 -0.054475904 0.22533633 0.009471019 0.060343973 -0.2844848 0.30603856 0.14392112
-0.11572253 0.008626785 0.11330214 0.04015067 -0.08695546 -0.052870225 -0.11335748 0.0060223746
0.02438853 -0.027522692 0.08714604 0.07297786 0.12535237 0.05259715 0.0985823 -0.019838758
0.13596426 -0.029997528 0.077993855 -0.0940913 0.12074668 0.11606178 -0.27968708 -0.12222182
-0.12018309 0.037224904 0.030953003 -0.072565585 0.106410354 0.08915579 0.06338626 -0.036263064
0.050817072 -0.09388699 0.08415257 0.21445875 -0.120291665 0.12201098 0.113994226 0.13626209
-0.10257423 0.03240837 0.09896291 -0.17137483 0.04350544 0.08605337 0.12048186 0.045225237
-0.0009983414 0.09680818 -0.022621151 -0.18138726 -0.053933006 -0.08910323 0.021775035 0.09585824
0.049845092 -0.24096487 0.0071785236 -0.27008185 0.09846489 0.10225912 -0.054265846 -0.20180687
-0.08210856 -0.37613073 0.15354791 0.15113485 0.036879923 -0.09741915 0.0051618186 0.12943335
0.13696793 -0.16767101 0.03225614 0.042341173 -0.15471214 -0.08511431 0.11498432 0.114484124
0.27038032 0.15346323 0.23881482 0.19690837 0.110974595 0.023072701 0.14326951 0.02462002
0.18051282 0.26215556 0.19809318 0.28728002 -0.06971743 -0.21575251 -0.122877255 0.0094716055
-0.0068600345 0.2309033 -0.085293114 0.06780847 0.16853078 0.187809 0.2012489 -0.20815884
0.120693564 0.084695324 -0.077342786 -0.10116586 0.1176148 -0.15810889 0.19641274 0.016987413

decoder_net.2.bias f4 [32]
00000000: 2993 803d c369 4d3e da3a 1f3d 5a35 b23c
00000010: 56ff f4bd b710 84bd 9966 e53d e356 3ebd
00000020: 6c3b ccbd 6504 be3d 3959 633d 6986 553e
00000030: 46df 7bbc 6abc ce3d 964b 53bd 00ab 98bb
00000040: c13d 3dbd 1211 75bd 87f2 0d3d 839e 8bbd
00000050: 2b5c ec3b 7999 813d bfcc f1bc 9dc4 123e
00000060: a524 c03d 6172 d63c a1b2 a9bd eb9b 613e
00000070: 022a 093e c127 d9bd e253 cebc 7cb3 bc3c
0.062780686 0.20059876 0.038874485 0.021753956 -0.11962764 -0.064485006 0.112012096 -0.04646958
-0.09972271 0.09278182 0.05550501 0.20852055 -0.015373057 0.10094531 -0.051585756 -0.0046590567
-0.04620147 -0.059830733 0.03465512 -0.06817343 0.0072131357 0.06328101 -0.029516576 0.14332815
0.093819894 0.026177587 -0.08286024 0.22032134 0.13394931 -0.106032856 -0.025186483 0.023034804

decoder_net.4.weight f4 [32, 32]
00000000: eaa8 f13c 081a 6cbe af2e 84bd 849a 8abd
00000010: d1de 6a3e 270c a3bd 60aa b0bc e30c 83be
00000020: f209 b9bd afa6 f1bb 1d97 953c b22f 68be
00000030: 8ad4 963d e234 4a3d 6706 debd cb00 57bc
00000040: 5467 aa3d 78c1 833d d11a 623e 17b6 b13c
00000050: ac6c ffbd 45a5 9c3d f0fd 8dbe 95bc 1d3d
00000060: 634b 34bd 1eaa 543d c1c7 a83e 4ead 71bc
00000070: aa4a a2bc 9136 663d f0d7 1abe 6717 3cbe
00000080: 9036 fc3d 73af b23d d96b 71be 16a7 393d
00000090: d512 973c 573d aabc 7d77 2cbe 35d7 c7bd
000000a0: 4134 4fbe 99bb 283e 261d e1bd cd35 353e
000000b0: 9dd5 043e b019 5a3e b19d d0bd 575e 4c3d
000000c0: d5df 28bd 4198 d43d 1d4b 43bd f5d5 22be
000000d0: 6ea7 1dbd 3b25 07bd c194 d03c dc96 1d3e
000000e0: d82a 4d3e 1d35 473e a570 13be e41c 2e3c
000000f0: a1a8 983d 7605 95bc f968 cb3d b5f0 cbbd
00000100: 4d6e e3bd ba11 3bbe ba17 473e 6c36 cf3d
00000110: d045 753e c8b2 b2bd c56d 22be d718 9f3d
00000120: 677c 433e 13d2 c43d 9c8d 6cbc c576 843d
00000130: c41d 58be f9b3 49be 2089 a4bd f022 c1bb
00000140: f46a 35be 0f28 a2bd 4680 91bd 2a81 303d
00000150: 9585 b0ba 2630 203e d299 80be c39d 9dbc
00000160: 4ea5 cf3c bd46 27be 5253 8e3e bca8 613e
00000170: afc8 1abe bd23 263d f8b8 993d f0fe 0fbd
00000180: 2f17 6f3e 34b7 5e3e 34c3 e0bc 68c3 453d
00000190: a378 d33d c594 1a3e 7748 61be 27fa a63c
000001a0: 14c1 873c d791 053e 33d6 cdbc 8c83 79bc
000001b0: b09d 553e f888 debb baf5 c53d 6139 a43d
000001c0: bca1 d73d 66e9 3f3d 2a69 35be b1d8 77bd
000001d0: a66c 403c cc43 b73c 812e 703d 4534 c43c
000001e0: 9986 33bd 1bc1 7d3e ae78 36be bf40 7bbd
000001f0: 3697 0e3e f03d c73c 5d2b 613e 9005 b93c
00000200: c740 9e3d 2165 423d aaa0 6b3e 0d3f 95bd
00000210: e6dd 253e 8b22 13be d338 b73c 8d4c 143e
00000220: 08a4 5dbd 0a0b 02bd 549d e03d 7740 40bc
00000230: 04cd e2bd ac34 02be 57a3 8cbd bad8 31be
00000240: 5c39 553b 8e45 d6bc 2ebe 3d3e c338 34bb
00000250: 3678 243e e585 d03b bf03 d8bd 5f30 82bd
00000260: 2450 863d 9211 eeba ecb5 9a3e 3ed1 24bd
00000270: a44f 47bd 5d5f 24bb e917 25be a187 40bd
00000280: a40f b83d ca23 e83d 6333 423c a7b3 823d
00000290: f951 eb3d 628a b0bd 3030 1bbe fe13 9dbd
000002a0: 24e7 63be fe0f 373d 1076 b9bb a5e3 31be
000002b0: 85da 3c3e defc 353e 96a2 b33d fbe0 b73d
000002c0: 389e 2c3e 5d25 263e e1c5 7d3d d7ea 75bc
000002d0: 7bbf 713d c791 9bbc 5ac9 8cbd 33f7 063e
000002e0: 5c6a b13d c339 a63c 22ef 97bd e995 253d
000002f0: 9a8b c2bc a53d e2bc 1aea 7d3d 8507 8c3d
00000300: 5ec4 593e 772f a43d d195 fe3c 07fe 983d
00000310: d13e c5bd f99d 553d ad0f 1e3d 14c8 683e
00000320: d105 283b 6632 473e 23f3 a63d e7b6 1b3e
00000330: 8bd9 413e 637c 633e 73e8 bbbd b28c c8bd
00000340: b8a2 4f3d 3524 4b3d a3b2 07be 1ec2 11be
00000350: de16 ecbd 3925 45bc 118f 913e 218f 613e
00000360: 3302 6a3d 9f75 7f3e 0590 05be acd4 b8bd
00000370: 3034 873a fd1b 483e b042 e63d 6226 8ebd
00000380: 8fc0 2cbd 264a c9bc 136f 86be 4dc2 373e
00000390: 8850 38be d27d 82bd b0cc 2dbd 34f7 5cbd
000003a0: bae3 cdbd 18bd 1d3e 3a02 a93d 6934 623e
000003b0: 22e9 c83c e649 643e cbb1 c5bd cf0b 53bd
000003c0: 2f17 3dbe 388c 703e ae65 71bd 3a69 03be
000003d0: b9ad 9b3c 1fbb 223b 9ffe 4d3e c874 713e
000003e0: 40cb 893d a7ec 213d 8c6c 85be e20e eebd
000003f0: dbd0 583e 4a8c ca3d b292 8dbd 2b9a 61be
0.02949949 -0.23056805 -0.06454217 -0.06767753 0.2293656 -0.07961302 -0.021565616 -0.2559577
-0.090351 -0.0073746066 0.018260533 -0.22674444 0.07364757 0.04936684 -0.10841065 -0.013122748
0.083204895 0.064333856 0.22080542 0.021693273 -0.124718994 0.0764871 -0.277328 0.038509924
-0.044017207 0.05192005 0.329649 -0.014750792 -0.019810993 0.056204382 -0.15121436 -0.18368302
0.123150945 0.087248705 -0.23576297 0.04532536 0.018441597 -0.020781202 -0.16842456 -0.09757844
-0.20234777 0.16477813 -0.10991888 0.17696305 0.12972112 0.21298862 -0.10186327 0.049894657
-0.041229088 0.10380603 -0.047679055 -0.1590193 -0.03848975 -0.03299449 0.025461556 0.1538958
0.20035875 0.19453855 -0.14398439 0.010627005 0.074540384 -0.01819108 0.09932131 -0.099580206
-0.111050226 -0.18268481 0.19442645 0.10117802 0.23952413 -0.08725506 -0.15862186 0.0776841
0.19090424 0.09610381 -0.014438059 0.06467966 -0.21105105 -0.1969756 -0.08033967 -0.0058940575
-0.1771658 -0.07917797 -0.07104544 0.04309193 -0.0013467545 0.15643367 -0.25117356 -0.019240266
0.025347378 -0.16335578 0.27797943 0.22037023 -0.15115617 0.040561426 0.07505983 -0.035155237
0.23348688 0.21749574 -0.02743683 0.048282057 0.10325744 0.15095814 -0.220003 0.020382954
0.016571559 0.13043915 -0.025126552 -0.015229117 0.20860934 -0.0067912303 0.09666009 0.08018757
0.10528895 0.046853445 -0.17715898 -0.060509387 0.011744654 0.022371195 0.0586381 0.023950705
-0.043829534 0.24780695 -0.17819473 -0.061341044 0.1392487 0.024321526 0.21989198 0.02258566
0.07727199 0.047459725 0.23010507 -0.072874166 0.16197929 -0.14368646 0.022365963 0.14482327
-0.05411151 -0.03174881 0.10967508 -0.01173412 -0.1107426 -0.12715405 -0.06867092 -0.17367831
0.003253541 -0.026156213 0.18529579 -0.0027499653 0.16061482 0.0063636177 -0.105475895 -0.06356882
0.06558254 -0.0018163195 0.3021692 -0.04023861 -0.048659936 -0.0025081255 -0.16122402 -0.047004346
0.08987358 0.11334951 0.011853072 0.06381922 0.114902444 -0.086201444 -0.15155101 -0.07669829
-0.22256142 0.044692986 -0.005659826 -0.17371996 0.18442734 0.17772242 0.08771245 0.089784585
0.1685723 0.1622519 0.06195629 -0.015009603 0.0590205 -0.01899041 -0.06874342 0.13180237
0.086628646 0.020291215 -0.07418658 0.04042617 -0.023748208 -0.027617285 0.061990835 0.06837372
0.21266314 0.08016866 0.031077297 0.07470327 -0.09631122 0.052152608 0.03858917 0.22732574
0.0025638232 0.19452819 0.081518434 0.1520649 0.18930642 0.22215419 -0.091751955 -0.097924605
0.05069229 0.049595077 -0.13251738 -0.14234206 -0.11527799 -0.0120328 0.28429464 0.22027256
0.057131004 0.24947213 -0.1304322 -0.09024939 0.0010315236 0.19541927 0.112431884 -0.06940915
-0.042175826 -0.02457149 -0.26256618 0.17945214 -0.1799947 -0.063716546 -0.042431533 -0.05394669
-0.10053201 0.15404165 0.08252378 0.22090305 0.024525229 0.22293815 -0.09653052 -0.051524933
-0.18465875 0.23490989 -0.05893486 -0.1283311 0.019003736 0.002483077 0.20116661 0.23579705
0.0672822 0.03953233 -0.26059377 -0.116239324 0.21173422 0.09890039 -0.069127455 -0.22031467

decoder_net.4.bias f4 [32]
00000000: 1088 a2bd faad a13d af17 c4bd 5df0 3b3c
00000010: 0381 2ebd f68b e83d 7f01 ff3d e64e 0f3e
00000020: 2206 023e 2da3 a33c 472d d7bd 20c3 863d
00000030: 3b2b 40bd 7d19 e33d 748a 083e f20d c03d
00000040: 8d6f 043e d0fe 473d 9f5d 173c eecf 3f3c
00000050: 696b 133e b57e f93d 097f 10be a1ba 703c
00000060: afad c13d bc6a 1b3c 9c31 413e 821d 863d
00000070: 0ba6 df3c 648b 0a3e e6da 6b3d d9e8 09bc
-0.07936108 0.078945115 -0.0957483 0.011470881 -0.042603504 0.113548204 0.12451457 0.13994941
0.12697652 0.01997527 -0.10506683 0.06580186 -0.046916228 0.11088846 0.13334066 0.0937766
0.12933178 0.048826993 0.00923863 0.011707289 0.14396442 0.121823706 -0.1411096 0.014692933
0.09456956 0.009485897 0.1886658 0.06548597 0.027300855 0.13529736 0.057581805 -0.008417332

decoder_net.6.weight f4 [32, 32]
00000000: 0ef9 613d b70d 8dbd 2b14 493e c7fd 8d3d
00000010: c4ef 3c3e 6232 cb3d 8b62 d2bd 1385 3cbe
00000020: 8ea9 8bbb 81fc 4d3e 8ddf 9b3e 277c 0abd
00000030: bc4d 95bd 88b6 2b3e a5e5 86bd 4626 3f3c
00000040: 30dc 99bc 312a 3dbc 413b 233d b68e f2bd
00000050: ea62 893e b0dc 3f3d 734f f03d f597 213e
00000060: 107d 003e 7cfb 1b3e 28ea 0a3e 3d68 813e
00000070: 4d0e b13e bc81 2d3e 9eb8 12be 0f59 88bd
00000080: a57e 8bbd aed7 77bd 0b3b 323d 0975 09be
00000090: 3e4e d93d 426e 403d ed48 193d 83a0 0d3e
000000a0: 20c6 d5bd 7ae4 ad3e a500 8b3e 8861 dc3c
000000b0: d560 47be 76aa d5bb 806d 7f3c b24a 0bbe
000000c0: 6197 233e 6314 c4bd d66d 20be 8add 953d
000000d0: 9609 a73e e1e3 aebd 7580 a33e 8d73 483e
000000e0: 503a b73e 8ef5 f03d 79bd 47be c7a3 78bc
000000f0: 63a7 663e b534 023e ae3f df3d a450 ca3c
00000100: 45c3 133d d326 4fbd f5a6 7dbb 981c 8dbe
00000110: 541b 08bd 013a 5cbe b511 95be e7c7 0cbe
00000120: 1b56 39be 7a6c d23d b0a6 143e 81e6 a3be
00000130: 7c32 72be b5f1 42bd 6eaa 9fbe 4f07 cbbd
00000140: ad72 29be 3158 193d 82c5 d1bd 4ad9 8ebe
00000150: 25b0 083e 456c f1bd 5015 8cbd c124 333d
00000160: 8b03 bf3e b219 41be 8b9c ee3c 3f89 293e
00000170: af7a 7d3e 95a8 49be 79ea 4fbd 9c1f 95be
00000180: 7f95 41be 7d94 103e f046 74be 34be 7e3d
00000190: 3b45 a93d 0550 dabd 603b 723e 5859 903e
000001a0: 4022 7cbd 3510 eb3c d1b6 5dbd b730 03bd
000001b0: ef3b 173c 3797 8cbd 6fe9 783e 76f5 803e
000001c0: d092 c93d 2060 f13d 20ca be3d eda6 e43d
000001d0: 4388 69be 6a97 433e d487 623c b1c1 523b
000001e0: 9c7d 5fbe 9a22 893e 5e52 863e 607a 023c
000001f0: 1df7 6abe 70be b7bc 4caa 083e a197 1f3e
00000200: 8a1b 86bd 675d 44bd 1d78 70bd f3ee 92bc
00000210: 1cc0 c5bd be74 023e 8f02 e2bd 4afe c4bd
00000220: 937c e33d 6ee8 323e b3a6 183d a0dc 8fbd
00000230: b05e 8bbc ef5f 3c3e 8ac1 cf3c 61a8 66bc
00000240: 94de 6bbc 7e67 59bc affc a63c 9a1c 05be
00000250: 0d03 ef3d 2260 a7bd a04d 263e e138 323e
00000260: b3ff 45bc b0df 353e 0cb6 89bd abc4 443e
00000270: 787c 123c 1446 f33d 7815 0cbe f37b 243e
00000280: 2586 18bc 6c1d 753e dd48 44be 9c2e 263e
00000290: 3841 cb3d 4081 edbd de81 753e fd73 8d3e
000002a0: 8ebd 803e 4379 27be 0531 f0bc 4288 6c3e
000002b0: 1800 723d 0d65 763e 3262 003d 7326 7b3e
000002c0: 0aa4 813e 92fb 483d 9555 1a3e 8fed 673e
000002d0: f657 bbbd 222f 093e 055c 42be 1309 3a3d
000002e0: f212 08be 3b6d ae3c 78d7 523e 3f34 58bd
000002f0: 1d0c 3c3c 1130 203e a61c 273e 5af6 3f3e
00000300: 983e ee3d 8e27 873c 13d0 733e 1117 0bbe
00000310: 078a 073e e109 e2bd 02c6 27bd d023 c53d
00000320: 2138 0ebe 0f06 8e3d f3ef 943e 818c 443c
00000330: 2985 83bd 5d83 8ebd d7e5 fe3d c825 b4bd
00000340: 273a 57bd 67df 9bbd dfb4 9cbd d84e 09be
00000350: 3896 863e c79c 91bd 2751 2a3e e0b8 213d
00000360: 50f1 553e 3374 1f3e de8f e5bd 8863 563e
00000370: 3d25 cc3c e213 d03d b31d 05bd ca07 023e
00000380: 0c89 993d 4ac7 093d 0dd5 953d b2fc b03d
00000390: 1244 3c3e c901 0a3e 8517 653e be31 813e
000003a0: 5561 443e f4cb 1abe dc92 82bc ffa8 833e
000003b0: 8409 e43d 828b fb3d c961 c8bb bf8c b03d
000003c0: 0de1 71bc f027 013e 56c0 803e 3ca5 473e
000003d0: dc11 e6b9 b1ef 4e3e 58f7 e3bd 0a48 cd3c
000003e0: b421 3ebe 96c2 0cbd df1f 873e 8c39 84bd
000003f0: f646 683d 1a6b 543d 7915 d6bb d76c e93d
0.055169158 -0.068873815 0.196366 0.0693317 0.18450838 0.09921719 -0.10272702 -0.18410139
-0.004262156 0.20115854 0.30443993 -0.033809807 -0.07290217 0.16768849 -0.0658677 0.01166684
-0.018781751 -0.011545704 0.03985143 -0.11843626 0.26833278 0.046841323 0.11733904 0.15780623
0.12547708 0.15232652 0.13565886 0.2527484 0.34581223 0.16944021 -0.14328238 -0.066576116
-0.06811265 -0.060508423 0.04351334 -0.13423552 0.10610627 0.04698015 0.037423063 0.13830762
-0.1043818 0.33963376 0.2714893 0.026901975 -0.19470532 -0.0065205647 0.015590072 -0.13602713
0.15975715 -0.09574201 -0.15666899 0.07317646 0.326245 -0.08539558 0.31933942 0.19575329
0.35786676 0.11765586 -0.19505872 -0.015175766 0.2252479 0.12715419 0.10900818 0.024696656
0.036074895 -0.050574135 -0.003870425 -0.27560878 -0.033229187 -0.21506502 -0.29115072 -0.13748132
-0.18099253 0.102745965 0.14516711 -0.32011798 -0.23652071 -0.04759379 -0.31184715 -0.099135034
-0.16547652 0.03743762 -0.1024275 -0.27900153 0.13348444 -0.11788229 -0.068400025 0.043736223
0.3730739 -0.18857458 0.02912738 0.16556261 0.24753831 -0.19693215 -0.05076072 -0.2912568
-0.18904684 0.14119144 -0.23855186 0.06219311 0.08265158 -0.10659794 0.23655462 0.28193164
-0.0615561 0.028694252 -0.054129425 -0.03202888 0.009230598 -0.068647794 0.24307798 0.25187272
0.098424554 0.117859125 0.09315896 0.11164651 -0.22805886 0.19100729 0.013826329 0.0032158906
-0.2182526 0.2678421 0.26234716 0.007963747 -0.22945829 -0.022429675 0.13346213 0.15585186
-0.065482214 -0.047940638 -0.0587083 -0.017936205 -0.096557826 0.12739846 -0.11035644 -0.09618814
0.11107745 0.17471477 0.03726835 -0.07024503 -0.017012924 0.18395971 0.025360841 -0.014078231
-0.0143963285 -0.013269303 0.02038416 -0.12999192 0.11670504 -0.08172633 0.16240549 0.1740451
-0.012084889 0.17761111 -0.06724176 0.19215648 0.0089408085 0.11878601 -0.13680065 0.16062908
-0.009309326 0.23937005 -0.1916842 0.16228718 0.09924549 -0.11596918 0.23975322 0.27627555
0.2514462 -0.16354851 -0.02932025 0.23098853 0.05908212 0.24061985 0.031343646 0.24526386
0.25320464 0.04906804 0.1507171 0.22649215 -0.091476366 0.13396886 -0.18980415 0.04541881
-0.13288477 0.02129232 0.20590007 -0.0527842 0.011477497 0.15643336 0.16319522 0.1874632
0.116330326 0.016498353 0.23809843 -0.13583018 0.13236247 -0.110370405 -0.04096032 0.09625971
-0.13888599 0.06934749 0.29089317 0.011996389 -0.06421883 -0.06958649 0.12446182 -0.08796269
-0.052545693 -0.0761097 -0.07651686 -0.13408983 0.26286483 -0.07109981 0.1663252 0.03948295
0.20892835 0.1557167 -0.11209081 0.20936406 0.0249201 0.10160042 -0.032499027 0.12698284
0.07496843 0.033637322 0.07316027 0.08641948 0.18385342 0.13477243 0.22372253 0.25233263
0.19177754 -0.15116864 -0.015939169 0.2571487 0.111346275 0.122824684 -0.0061151725 0.08620595
-0.014763129 0.12612891 0.2514674 0.19496626 -0.00043882325 0.20208623 -0.111311615 0.025058765
-0.18567544 -0.03436526 0.26391503 -0.06456289 0.0567083 0.051859953 -0.0065333215 0.11397713

decoder_net.6.bias f4 [32]
00000000: c0fa 03bd 380f b5bd 817b 913d 76e1 973d
00000010: 0c01 5ebd 7313 c93d 8b52 9d3c ed84 0a3e
00000020: 0be0 e5bc 06c2 4c39 137d 173e 3a46 9c3b
00000030: 8e60 753d a393 1c3e c85f d9bd 8091 363e
00000040: 1fe8 6b3d ff71 89bd 3221 9cbd 7bf7 173e
00000050: 38f4 e73c 5b29 183e e832 cc3d 71a0 f43d
00000060: c8df f53d e846 94bc 32b8 123d d0b7 013e
00000070: 30bc 13be e31a 773d dde0 043e 41fe b6bd
-0.032221556 -0.08840793 0.071036346 0.0741605 -0.054200217 0.09818163 0.019204399 0.1352727
-0.028060934 0.00019527235 0.14793806 0.004769114 0.059906535 0.15290694 -0.10613972 0.17828941
0.057594415 -0.06711196 -0.07623519 0.148405 0.028314695 0.14859526 0.09970647 0.11944664
0.120055735 -0.018100217 0.035820194 0.12667775 -0.14427257 0.060328376 0.12976404 -0.08935214

decoder_net.8.weight f4 [32, 32]
00000000: 1e8a aa3e 41bf 8a3e f53d 6d3e 1d6d 09be
00000010: 9f06 083e 213a 95bd d084 b73d e3d0 7a3c
00000020: 5573 1dbe af49 283e 477c 083e baba 123e
00000030: 7a81 f93d be08 b43e 7296 743e 317c 96bc
00000040: f319 033e 22ca 16be bd87 1d3e 4fb0 15bd
00000050: 08c8 e2bd 6388 053d 6062 a13e 866f d13d
00000060: d4d1 e3bd 02f8 553e 208c 4a3e 36fb 9e3e
00000070: 0a5a 3c3e 0b18 4138 440d 6d3e 418d 2f3e
00000080: 9d76 efbd e6cd a43d 9580 4bbe 2095 593e
00000090: 5242 69be 4a23 ff3d c090 db3c e68d c93d
000000a0: 10d9 9a3d c523 ab3d 57f6 603d d330 71bd
000000b0: 4082 103e 147d 61bd b262 1d3d 9f33 1c3d
000000c0: bbce 643e 843e fdbd 5699 90bc 275f 2bbd
000000d0: ddf9 de3d 3395 123e 34ab 36bb 449f 47be
000000e0: 5316 cbbc 8354 3dbe 6821 d63d 0e71 ac3c
000000f0: ebb0 c3bd 9188 043e dfb1 89be 5dde ecbd
00000100: b648 33be ff04 0d3d ddd9 67be 78bc 8d3e
00000110: 1e5b b7bd 9079 703d 123b 303d 1f4c 793e
00000120: 0dae 533d 8824 8abd da29 863d 84d3 d13d
00000130: 5146 873e 85ea 10be 4271 d8bd 6a22 8a3d
00000140: 0c83 90bd 16c5 4f3d 2a4a cbbc 528c 8e3d
00000150: 1005 c8bb 4491 c73d 65a7 18be 386a e03d
00000160: 42fd 783e 2b0f 51be bb22 f2bd 94b9 44bd
00000170: 9ce0 3dbe 2ff2 933d 8b9d 87bd d4e4 4f3d
00000180: 1802 973e c049 8f3e c192 ab3d fd0c d33d
00000190: 9ef6 773d 073a 12be 5fde 033e 11d0 48bd
000001a0: 486d 97bc c6d9 b73d d454 3c3e f71a 633e
000001b0: 1956 16be 1acb 0f3e 5ecb 463e 190a 5abc
000001c0: a00d 9bbd 9fc5 b13d cbbd 1a3e f2a6 87bd
000001d0: a8df 013e 4c48 afbd 7eb2 123e 2267 0abd
000001e0: 157b f13d 731c 563e c19f a1bd 9c7c 463d
000001f0: e5ec ff3d ecfc 523d 1328 723e f87f 9d3e
00000200: 0614 a43d 963c b5bc 3b32 95bd 4e92 863d
00000210: 9ae2 2bbe 7915 793e e43e 0ebe 9df4 ea3b
00000220: 391e 653e 524e d23d 6431 2ebd 65ba 14be
00000230: ae72 1c3e 594b 29bd 581d cbbd c872 e53d
00000240: 83a0 143e 115f 313d 9a03 1f3e a345 853e
00000250: 10bc 1a3e dba0 b03c a69e 29be 4cd7 013e
00000260: 159a c9bb 5aec b73c 1d6f a1bd 0d45 02be
00000270: 6a6c 17be 454d 733e 7c1c 0cbe 94f2 ab3d
00000280: 0755 09be e1d3 973d e0d3 2cbe 6871 903e
00000290: 2e02 993d 7a96 75bc acfe 6c3d 6f17 9c3e
000002a0: 096e 133e 94a2 57bd 271e 043c b2a6 84bd
000002b0: 98e3 8b3d b7cd ddbc fcd5 34be 4086 7a3e
000002c0: 9f7a f53d 8006 e23d 1e92 8c3e 9599 883e
000002d0: ff8e 9c3e 3551 743e 1a92 ffbc 997a b83c
000002e0: ab3f 54bc 62fd 8bbd 5f5c acbd 232d 553b
000002f0: 40d3 8cbd 4979 2c3e 1592 f6bd 24f5 b53d
00000300: e317 66be 9819 06be 5e91 5cbe 3c98 573e
00000310: c9c0 433d 2edb 2c3e 2493 17be c02f 8ebb
00000320: eb9a f53d 494c 95bd a316 773d 525e 9b3d
00000330: 7476 293d f766 cfbd b253 66be 777e 513b
00000340: 0653 2e3e cbb9 8b3c dac1 b6bc 733b 633e
00000350: 66e3 c0bc 91ea 5b3e 006e b6bd 4b4c 9239
00000360: 8ecd 203e 5082 4abe 8c4b 033d 1b7a 8d3c
00000370: 4d3b 85bd 872a 1a3e bdca 3c3d bc66 10be
00000380: 3f17 2c3e 0c9f a43e b28f 243e 8a15 eb3d
00000390: 3438 853d b448 30be 74ba 703e 3cd8 c83d
000003a0: 7028 f93d 20b1 723d 22c8 9c3d e33f 6b3e
000003b0: c17d 85bd 1e83 913e da93 b03e 6ec3 fabd
000003c0: 0e93 41bc 1e17 a8bd 250a febc 7ac0 fabd
000003d0: 7346 8b3d 56bd 7b3d dac7 d13e 40c9 2a3d
000003e0: 020d 273d 5873 b53d 0d7b 9f3e 6888 453e
000003f0: 679e d7bd a7a6 dfbd 9cc5 a53e 5574 963e
0.333085 0.2709904 0.23168166 -0.1342053 0.13283776 -0.07286478 0.08960879 0.015308592
-0.15376027 0.16434358 0.13328658 0.14329043 0.12182899 0.3516292 0.23885515 -0.018369766
0.12802868 -0.14725545 0.15383811 -0.036545094 -0.11073309 0.03260077 0.31520367 0.102263495
-0.11124006 0.20895389 0.19780016 0.31051034 0.18393722 4.6037178e-05 0.23149592 0.17143728
-0.116925456 0.080470845 -0.19873269 0.21248293 -0.22779205 0.12457903 0.02680242 0.09841518
0.07560933 0.08356432 0.054922428 -0.058884453 0.14112186 -0.055050924 0.0384242 0.038135167
0.22344486 -0.123654395 -0.017651241 -0.04183879 0.108875014 0.14314727 -0.002787304 -0.19494349
-0.024790918 -0.1848927 0.104555905 0.021050002 -0.09555229 0.12942721 -0.26893517 -0.1156585
-0.17508206 0.034428593 -0.22641702 0.27682853 -0.08952926 0.05870968 0.043025084 0.24345444
0.05167966 -0.06745249 0.06550951 0.102454215 0.26420835 -0.14151962 -0.10568477 0.06744845
-0.07056245 0.050725065 -0.024815638 0.06960358 -0.006104119 0.09744504 -0.14907606 0.109577596
0.2431536 -0.20415942 -0.118230306 -0.048028544 -0.18542713 0.07223927 -0.06621846 0.050755337
0.29493785 0.27985954 0.083776005 0.10305212 0.060537927 -0.14279948 0.12877797 -0.049026553
-0.018484727 0.08977084 0.18391734 0.22178255 -0.14681281 0.14042321 0.19413516 -0.0133080715
-0.07570958 0.08680271 0.15111463 -0.06623639 0.12682974 -0.085587114 0.14325902 -0.03378976
0.11791054 0.2090929 -0.07891799 0.04845868 0.12496356 0.051510736 0.236481 0.30761695
0.08011632 -0.022123616 -0.07284971 0.06570874 -0.1678566 0.24324597 -0.13891178 0.0071702735
0.2237481 0.10268845 -0.04252757 -0.14524229 0.15278122 -0.041331623 -0.09917706 0.112035334
0.14514355 0.043303553 0.15528718 0.2602969 0.15110803 0.021561077 -0.16564426 0.12679785
-0.006152401 0.022451568 -0.07882521 -0.12721653 -0.1478745 0.23759945 -0.13682741 0.083958775
-0.13411342 0.074134596 -0.16877699 0.28211522 0.07471119 -0.01498949 0.05786006 0.30486628
0.14397444 -0.05264528 0.0080638295 -0.06477107 0.068305194 -0.027075632 -0.17659754 0.24465275
0.11986279 0.11036396 0.2745523 0.26679674 0.30577847 0.23859103 -0.031197596 0.022519397
-0.012954633 -0.06835438 -0.08416056 0.0032528124 -0.0687623 0.16843142 -0.12039582 0.088846475
-0.2247005 -0.130957 -0.21539828 0.21054167 0.047791276 0.16880485 -0.14802223 -0.0043391883
0.11992439 -0.07289941 0.060324322 0.075863495 0.04137273 -0.10127061 -0.22492865 0.0031966248
0.17023858 0.017056366 -0.022309233 0.22190647 -0.023545932 0.21476199 -0.089076996 0.00027904133
0.15703413 -0.19776273 0.03205447 0.017270138 -0.06505451 0.15055285 0.046091784 -0.1410169
0.16805743 0.32152593 0.1607044 0.114787176 0.065048605 -0.17215234 0.23508626 0.098068684
0.12165916 0.05925095 0.0765536 0.2297359 -0.06518126 0.28420347 0.34487802 -0.122443065
-0.011814846 -0.08207534 -0.031010697 -0.12243743 0.068005465 0.06145986 0.40972787 0.041695833
0.04078389 0.08859891 0.31148568 0.19290316 -0.1052826 -0.10920458 0.32377326 0.2938563

decoder_net.8.bias f4 [32]
00000000: cb7c 5c3e 463b 39be 34cb 0d3e b056 03be
00000010: 9848 9d3d 52d8 c23d 3e3c a3bc b9a1 3b3e
00000020: 4adf c93d 843e ebbd c2bb c03d 1ddb ca3d
00000030: 1459 d1bd 401d 7e3d f965 fe3d cff6 90b9
00000040: 78ef 43bd d58b b3bd e39f 4fbd 1b15 8e3e
00000050: dc09 aebd 6a62 c1bd 88ac b4bd 50c6 fbbc
00000060: dd1c 4c3e c378 853d aa66 76bd 9028 6a3c
00000070: f7d6 f7bc bd2c e7bd 144e 04be 5ec4 88bc
0.2153198 -0.18089017 0.13847047 -0.12826037 0.07679862 0.09513916 -0.019926187 0.18323411
0.09857042 -0.11486533 0.09410812 0.09905074 -0.102220684 0.062039614 0.124217935 -0.00027649707
-0.047835797 -0.08766905 -0.05068959 0.27750477 -0.08497974 -0.09442599 -0.0882197 -0.030734211
0.19932885 0.06517174 -0.0601565 0.014291897 -0.03025387 -0.1128783 -0.1292041 -0.016695198

decoder_net.10.weight f4 [1, 32]
00000000: 95ea b03e 3a5b 0dbe 4896 24be 57fc 853d
00000010: 4b3f 41be 4981 d5bd 4eed 19be 5693 4c3e
00000020: f5f7 923e 371b 103e 3c2e a53e 68cb 8e3e
00000030: b97d 123e 5816 903e aff4 3ebe ea34 563e
00000040: 0032 51be ba36 1bbe 757b 403e a0f5 7f3e
00000050: da85 ee3d 719e 31be a24e 21be eb20 80be
00000060: e1f3 813e 191e 7ebe 8c87 e2bd 03bc 2fbe
00000070: 8a07 73be a099 76be 487d 3cbe 328b 86be
0.34553972 -0.13804331 -0.16072953 0.06542271 -0.188718 -0.1042505 -0.15031931 0.19978079
0.287048 0.14072882 0.32261837 0.27889562 0.14305772 0.28142047 -0.18648027 0.20918623
-0.2042923 -0.15157595 0.18797095 0.24996042 0.11646624 -0.17345597 -0.15752652 -0.25025114
0.25381377 -0.24816169 -0.1106101 -0.17161565 -0.23733345 -0.24082041 -0.18407166 -0.26278073
