Nash DQN - Updated/pt_files/Fic_play_ddqn/pol_net_it.pt (torch, 21633 bytes, 11 tensors)

policy_net.0.0.weight f4 [32, 5]
00000000: b4a3 84be f806 e8be 071e 713d 7451 d1be
00000010: fe6e 043f 53b5 853e 5409 163f 1c4c 883e
00000020: 2d80 193f 6594 f5be 7e4c 4a3e d89f 433f
00000030: c6c6 abbe 960b cb3e 72b5 6abf ceb7 f73e
00000040: f200 09bf 2c21 0e3e fee3 d9be a81f 063e
00000050: 84fa 55bf 42fb 25bf c2a1 933e 64e8 273a
00000060: e79d f53e 6563 23be 39d9 223e 6569 44bd
00000070: 0c3a 76be 9cdf 29bf f92c 84be ea43 f3bd
00000080: 82c5 173e e2b4 283f 42d0 ab3d ae36 bb3d
00000090: 0c34 143f 7275 723e c8c9 3f3f 0adc 3bbf
000000a0: 9276 22be 130c 32bf 245f f3be 9f17 4bbe
000000b0: cec6 063f 5c7a 07bf 5425 a8be 7a89 ecbe
000000c0: 3eb5 0bbf 5490 66be af5a 4f3d 3cba e53e
000000d0: 1060 3f3e 151c 433f 741b 25bf 303f 9c3e
000000e0: f685 61bf 50e2 093e 188e 4a3e 1644 643f
000000f0: 623d 33bf 9cdc 4f3e 3c54 07bf 210b 4b3e
00000100: 8176 b8bd 30b1 503e 5bf1 5d3e 2e8f ad3c
00000110: 4efc 763e 162c b1be 1981 a5be 2827 56bd
00000120: b0bd cfbe ac11 91be 0f8a 1f3e 4b8e c0be
00000130: a7fe 0b3f 4214 033f 048f dd3d e915 3fbe
00000140: 0f81 f0be 0e39 3bbe 7722 f23e 6eff 953e
00000150: 20e6 c2bd f4a6 af3d f253 573e 8a1e 63bd
00000160: 2534 ef3e 30e7 313f 46d5 d23e da9c 30bf
00000170: 503e e83d f062 c2be 8cc5 743e eb2f afbd
00000180: e012 053f 47d5 073f c82d a13e 473a 31be
00000190: 2cc5 aebe 19ca 2f3e 7e6a 753e 5211 aabe
000001a0: 30af 733d f565 e93e 40b4 fd3e 6c92 89bc
000001b0: 2ece 973e 79e3 efbe f48b 023f 8d7b 313f
000001c0: 304e 44be 867f 263f 5260 86bf 3460 973e
000001d0: 1282 933d 68e9 efbc 3921 69be 7208 353f
000001e0: e05c 983d 6470 253f 261f 953e 1abb c03e
000001f0: 183d 22bf 08eb ecbd 1426 0abf cccd b2be
00000200: 4681 8fbd 2e56 4fbd 3af5 71be 283d d73e
00000210: 846f 36bd 4279 a73d 9eef 703d 30d5 133f
00000220: 98ec 22bf 583f 0bbe 841a 28bf 3abc 6f3f
00000230: e4e5 153d 2095 c53e ee89 d23c 1237 093f
00000240: bbdc 4ebe 7f9f 21bd 7aba 0b3f 565f 1a3e
00000250: 8e09 2c3f 4882 d3be 8008 20bf aaf9 98be
00000260: 08d9 fc3e daf2 523e bae4 223e f55c 5d3d
00000270: 027f 35bf 28d2 4e3d 5cf0 823d da6c 453f
-0.25906146 -0.45317817 0.058866527 -0.40882456 0.5173186 0.26114902 0.58607984 0.26620567
0.59961206 -0.4796478 0.19755742 0.7641578 -0.3355009 0.39657277 -0.91683114 0.4838242
-0.5351707 0.13879842 -0.42556757 0.13098013 -0.8358538 -0.64836514 0.2883435 0.00064051733
0.47972032 -0.15955885 0.15903176 -0.047952075 -0.2404558 -0.66356826 -0.2581556 -0.11878188
0.14821437 0.65901005 0.083893314 0.09141289 0.5789192 0.23677614 0.7491727 -0.7338263
-0.15865543 -0.69549674 -0.47533524 -0.1983323 0.526471 -0.5292108 -0.3284098 -0.46198636
-0.5457343 -0.22515994 0.050623592 0.44868648 0.18688989 0.76214725 -0.64495015 0.30516958
-0.88095033 0.13465238 0.19780767 0.8916639 -0.7001554 0.20299 -0.52862906 0.19828464
-0.09006978 0.20380092 0.21674101 0.021186437 0.24119684 -0.34603947 -0.32325056 -0.052283436
-0.40574408 -0.28333795 0.15580009 -0.3760856 0.54685444 0.51202786 0.10818294 -0.18660702
-0.46973464 -0.18283483 0.4729192 0.2929644 -0.09516549 0.08576766 0.21028116 -0.055449046
0.4671947 0.6949339 0.4117834 -0.68989336 0.1134001 -0.37966108 0.23903483 -0.085540615
0.51981926 0.5305981 0.3148024 -0.17307387 -0.34134805 0.17166938 0.23966405 -0.3321634
0.059493244 0.455856 0.49551582 -0.016793452 0.2964949 -0.46853235 0.509948 0.6932915
-0.19170451 0.65038335 -1.0498145 0.29565585 0.07202543 -0.029286101 -0.2276658 0.7071601
0.074395895 0.6462462 0.29125327 0.37642747 -0.6337447 -0.11568266 -0.5396435 -0.34922636
-0.07007079 -0.050619297 -0.23628703 0.42038846 -0.044539943 0.08177425 0.058822267 0.57747173
-0.63642263 -0.13598382 -0.6566546 0.93646586 0.036596194 0.38590336 0.025700536 0.53599656
-0.2020139 -0.039458748 0.54581416 0.1507543 0.6720208 -0.41310334 -0.6251297 -0.2987798
0.49384332 0.20600453 0.15907565 0.05404373 -0.70896924 0.05049339 0.06393501 0.7711922

policy_net.0.0.bias f4 [32]
00000000: 0967 343e 8e4d 03bd 68bb 6bbe 8677 55be
00000010: fe38 b7bc 24ac de3d b8f8 403e 617b 4d3e
00000020: f94e a23e 0f88 5c3e 0e65 ab3d eaf9 96be
00000030: 8454 ef3d 27b2 08be 8b11 373e ede1 0e3e
00000040: aebd 85bd 7044 e6bd 8e1b 93be 52e6 66be
00000050: c3db aa3d a176 1dbe b05f 87be b41c 81be
00000060: aa57 6e3d 7e1a 463e 50a6 fd3d e2aa 5ebe
00000070: ba40 41bd 31ac 033e e833 04be b8d8 bebd
0.1761743 -0.032056384 -0.23020709 -0.20846376 -0.022366043 0.10872677 0.18844879 0.20066597
0.31700876 0.21536277 0.08368884 -0.29487544 0.11686042 -0.1334921 0.17877786 0.13953371
-0.06530319 -0.11243522 -0.2873196 -0.22548798 0.083426975 -0.15377285 -0.2644019 -0.2521721
0.05818907 0.19346043 0.12385237 -0.21744874 -0.04718087 0.12858655 -0.12910426 -0.093186796

policy_net.1.0.weight f4 [32, 32]
00000000: 9812 74be d6cf fabd 40e7 2f3e 7a38 3ebf
00000010: 8af7 3dbf 5ea8 8c3e 1bbe 6a3e 43a1 123e
00000020: 0c65 95be e212 54be 8350 e23d 4802 8fbe
00000030: 93dc 973d 9038 d03d 5a5f de3d 36cb 503e
00000040: 06fc 8cbe ff16 0dbe 4024 ccbe 40fb 48be
00000050: aeab 573c de34 46be 8694 8ebd c274 02bf
00000060: 6669 4ebc 127d 143c d630 283f 7dad 24be
00000070: e6ea a73e 61ec c73e 0641 aabe 64f5 28bd
00000080: 645b 8ebe 3c10 5e3e 3aac c03e 9ad1 d53e
00000090: f849 8b3e 763a 99bd 2ff7 33be ded1 9c3d
000000a0: a292 68be bc8d 2ebe 4abd b6bd 96cf 2e3e
000000b0: 6cc5 0b3e 9d76 423d 37a4 573b 911a a9bd
000000c0: e6f1 2bbe 5093 dfbd 7665 043f c0d4 e93d
000000d0: ae38 073d 328a b23e b39c d23e 58a6 a73e
000000e0: de57 ee3d 9ede 0fbe 9211 d4be 8003 973e
000000f0: 6ebf e0bd fde8 62be 6bfe 0b3e 6a1e 78bd
00000100: 0f68 8a3e a086 0e3e 72da 813e 878c 9e3e
00000110: 9c68 0d3f f4bb 703e 6cc5 43bd 1a0a 5abc
00000120: 7a5b 3fbd 6013 4e3d f6dc c23c 1b42 5d3e
00000130: edb2 833e 480a 763d 72e3 e3bc 8cda 2ebe
00000140: 5a18 e43d 7f45 fabd ce9b 8e3e 349b 0abe
00000150: 1c62 a03e feb5 903e 283c 8f3e 3a11 26be
00000160: 8331 5fbe 934c 05be e646 c83e f8a4 3cbe
00000170: 4cac 503d ee7d ea3c 84da 4a3d e8b8 29bb
00000180: f86a 58bf 9c79 433e d039 b8bd 2434 503e
00000190: 2cb4 b3be 42e8 9dbe 2cd8 c9be 8071 30be
000001a0: d61d 99bd 8e95 2cbd 2727 29be d48e b13e
000001b0: 5afd 0fbe 572f 793e a241 89be d203 4d3d
000001c0: 7a61 d03d ba1b 8dbe 521c 5f3e 0c10 663e
000001d0: e4f5 743d af87 833e 0e57 7f3e be63 ad3e
000001e0: f0fa cdbb a1f1 963a 204c 313d 30c1 dd3e
000001f0: 85c1 7d3e c4d7 36be b8f5 62be 60ae 5d3c
00000200: 9ae1 e53d 2555 4ebe 0a08 9bbb b4d8 54be
00000210: 9311 e5bd 8c32 bbbd 9868 dbbe b670 443c
00000220: 70e0 103e 1eb7 7cbd c044 3dbd 7f0d d7be
00000230: a24d bdbe 22f8 cabc dbcb b63d 5c59 0b3e
00000240: 646a 693c 9751 68be 5cfb e7bd 8c1b 563e
00000250: 3e96 263d 00a4 bcbd 5650 783d fc32 1b3e
00000260: e29c 4d3e 4276 373e 5aa4 01be 41ee 743c
00000270: 6a1a a8bd bd4a ebbd 425a cebd ca41 643e
00000280: 399b 52be 1797 6a3e f453 903e 8093 b9be
00000290: 0c2d 213e 0e6b ccbe 3fc7 a9be e89e 51bd
000002a0: 4233 233e 62b2 22bd 46d5 d4bd b6da 22bf
000002b0: 46e4 11be 56b3 5b3e 96e4 083c 5c00 d6bd
000002c0: 2138 2cbe aaaf ff3e 393a e6be 7365 783e
000002d0: 525c 233d 5c72 5f3e 9c87 be3e 1c17 ad3e
000002e0: ed07 463c 2a69 1dbe 80df 483e 54ff c3be
000002f0: 57aa 983e 4cc6 143e 59d3 803c 2ecf 9fbe
00000300: ca29 1e3d 366f 683e 0c19 e0be 259c 1fbe
00000310: d02d ea3e 4700 c53c aa28 5f3e 68df 933d
00000320: a602 acbd ed2d 17bd 1e5b 243c 4159 503d
00000330: 791a f8bd 0075 f4bd 1591 20be 549e bb3e
00000340: 4822 0c3e 089c 903d 866c 3fbe 9e45 ac3e
00000350: 48a2 5e3d 8ea4 0ebe 4cc8 66be 5e19 c63d
00000360: 3906 5e3e c8bb 81be 1a49 6d3d c415 eebe
00000370: fd61 0abe e2df 953e ce6d 623d 44a2 093e
00000380: 6757 5abf 7e38 083e 0cab c9bd 15a1 533e
00000390: 568a c5be 7057 7abe f50f 2fbe f469 0dbe
000003a0: 7a9f 9f3d 6a64 9cbe 258a cfbd 66ae 9c3e
000003b0: e235 f0bd 7c89 bb3e 3206 3cbe 982e 8f3d
000003c0: 76dc 8abc ab07 da3d 9602 8f3e 621a a53e
000003d0: ce4c 7fbc 6c3a a13e ca5d 42bd a039 733e
000003e0: 2500 1b3d 5ddf 693d 3cf4 0dbe 1408 033f
000003f0: 81dc 873e 024c 87be 092d 87bd 31e9 1d3e
-0.23835218 -0.12246673 0.17178059 -0.74304926 -0.7420584 0.27472204 0.22924082 0.14319329
-0.29178655 -0.20710328 0.11050513 -0.27931428 0.07415118 0.101670384 0.108580306 0.20390019
-0.2753603 -0.13778304 -0.39871407 -0.19627094 0.01316349 -0.19356105 -0.06961922 -0.5095941
-0.012598371 0.009063022 0.6569952 -0.16081806 0.327964 0.3904753 -0.33252734 -0.041249648
-0.278041 0.2168588 0.37631398 0.41761476 0.2720487 -0.07481854 -0.17574762 0.076572165
-0.22712186 -0.17046255 -0.08922823 0.17071375 0.13649529 0.0474764 0.0032904276 -0.0825702
-0.16791496 -0.109167695 0.5171732 0.11417532 0.03301304 0.3487106 0.41135177 0.32744098
0.11637853 -0.14049765 -0.41419655 0.29494858 -0.10974012 -0.2215919 0.13671272 -0.06057588
0.27032515 0.13918543 0.25361973 0.3096659 0.55237746 0.23509198 -0.047795698 -0.013308072
-0.0467181 0.050311446 0.023787003 0.21607248 0.25722447 0.0600684 -0.027818415 -0.17075557
0.11137457 -0.122202866 0.27853245 -0.13535768 0.31324852 0.2826385 0.27975583 -0.16217509
-0.21796231 -0.13017492 0.3911659 -0.18422306 0.050945565 0.028624501 0.0495248 -0.0025897566
-0.8453822 0.19089359 -0.08995402 0.2033239 -0.35098398 -0.3084126 -0.3942274 -0.17230797
-0.07476394 -0.042134814 -0.16518842 0.34679282 -0.1406149 0.24334465 -0.26807886 0.05005247
0.10174842 -0.27560216 0.21788147 0.22467059 0.059804812 0.25689456 0.24935552 0.3386516
-0.0062860176 0.0011516103 0.04328549 0.43311453 0.24780853 -0.17855746 -0.22164047 0.013530344
0.11224671 -0.20149668 -0.004731183 -0.2078579 -0.11184993 -0.091405004 -0.42853236 0.011989763
0.14148116 -0.06169807 -0.046208143 -0.42002484 -0.36973292 -0.024776522 0.08925601 0.13608307
0.014246557 -0.22687374 -0.1132724 0.20908946 0.040670626 -0.09210968 0.06062349 0.15156168
0.20079377 0.17916206 -0.12660351 0.014949382 -0.08208163 -0.114888646 -0.10075809 0.22290722
-0.20567025 0.22909199 0.2818905 -0.36245346 0.1573984 -0.39925426 -0.33159825 -0.051176935
0.15937522 -0.0397209 -0.10392241 -0.63614976 -0.14247236 0.2145513 0.00835528 -0.10449287
-0.16818286 0.4993871 -0.44966295 0.2425745 0.039882965 0.21820968 0.37212837 0.33806694
0.012086851 -0.15372148 0.19616508 -0.38280737 0.2981746 0.14528769 0.015725778 -0.31212753
0.038614072 0.22698674 -0.4376911 -0.15586908 0.45738077 0.024047984 0.21792856 0.07220346
-0.08398943 -0.036909033 0.01003149 0.05086637 -0.12114424 -0.119363785 -0.15680344 0.36644232
0.13684952 0.070610106 -0.18693742 0.33646864 0.054353982 -0.1392996 -0.22537345 0.09672807
0.21682061 -0.25338578 0.057931043 -0.4650098 -0.13513942 0.29272372 0.0552805 0.13440806
-0.85289615 0.133028 -0.09847078 0.20666917 -0.38582104 -0.24447417 -0.17095931 -0.13809949
0.077940896 -0.3054536 -0.10133771 0.30601805 -0.11729027 0.3662833 -0.18361738 0.06991309
-0.016950827 0.10645994 0.2793166 0.3224669 -0.0155822765 0.31489885 -0.047452725 0.23752451
0.037841935 0.05709778 -0.138627 0.511842 0.2653542 -0.26425177 -0.06600387 0.15420987

policy_net.1.0.bias f4 [32]
00000000: e295 56bd 0e9b d8be 8c08 2abd de06 ddbe
00000010: 6c89 0ebd 8934 15bd 6cbe b8bd fdf0 e2be
00000020: e5e9 d93d a5ab c8bc 8204 17be bb62 533d
00000030: 3efb 033c b226 31bd 1cfa 94bc 668b b9be
00000040: b0c4 16bf 42eb a3bd 66c2 033e 6922 06be
00000050: 30ac d33b 667f 473d 08c9 85be e64e c3bd
00000060: e84c bebd aac5 663d 56f2 d4bd 1af0 98bd
00000070: bb69 81bd 0895 51bd ce32 dc3b 8957 4c3d
-0.052389033 -0.42305797 -0.041512057 -0.43169302 -0.034799024 -0.036427055 -0.09020695 -0.44324484
0.10640315 -0.024495909 -0.14747813 0.05160783 0.008055506 -0.043249793 -0.018185668 -0.36239165
-0.5889387 -0.08003856 0.12867126 -0.13099064 0.0064597353 0.04870548 -0.26129937 -0.09536533
-0.092920125 0.05634085 -0.103977844 -0.07467671 -0.063189946 -0.051167518 0.0067199236 0.049888168

policy_net.2.0.weight f4 [32, 32]
00000000: 8812 33bd d431 1e3f 1d29 623e 9472 2a3f
00000010: 40da 20bd 59d2 463e 08b8 733c 94fd 293f
00000020: 265b 833e bcb0 af3d cba0 c13d 364e 10be
00000030: cc09 7d3c 0a21 7ebe 9063 1e3e 04b0 383e
00000040: 281b 283f 7548 ac3d 7f8f ed3e c0a2 1e3e
00000050: 6601 9fbc c20b ae3d 44d8 febd cba3 163e
00000060: 1617 9fbe 9398 1abe 8ca7 723e 38cf c13e
00000070: 8a49 5a3d 2023 07bf aeae 083d b0d4 70bc
00000080: 1335 89be 4565 c43e 84b4 f8bc 55d2 f83d
00000090: 6415 533e 6005 8a3d 9ede 2d3e 1e08 463e
000000a0: c152 c23d 47b1 723d de0f 8f3e fee2 223e
000000b0: 2033 9cbc a680 65be 58c9 5c3e 8bd2 b23e
000000c0: 865a a13e 2ac0 763c 5d1c 60bd 4c3c 973d
000000d0: e296 7ebc 2684 c33d b68d b23d c1ea 103e
000000e0: 3801 1fbd e2a2 ecbb e794 95be 5749 3dbe
000000f0: ea5e 773d 08e2 11bd 76f6 b9bc 70d6 513d
00000100: 4632 303e 6909 953b 1096 d9bd eccc fa3d
00000110: 43d7 b1bc 5677 b9bb 8483 683e 532c 933c
00000120: fb3b 823d ec30 cc3d 6380 263d 5ce4 3c3e
00000130: f477 c4bc 3a8b 3ebe 4736 16be b460 9ebc
00000140: d1e2 a83e 12ed babe 623c 6bbd 3312 613e
00000150: 49f0 183e d784 05be c008 433e f5b0 ca3d
00000160: e261 e0bc 726d a9bd 5d91 4dbe 96d7 2e3e
00000170: 2a5b c8bc 4aec 793e 28e6 aabe 0078 e7bd
00000180: 0456 993d a493 8e3e 8722 c4bd 2ca3 f43e
00000190: b4f9 143c d5de 2dbe 0353 33bd be36 763e
000001a0: 28c7 3b3e ba2f 253b a8a7 993d ea90 9ebe
000001b0: e836 f8bd cee1 f33c 64f6 1bbe 82c0 8f3d
000001c0: c916 363e 4e5d 1c3e b201 a63e d4c2 bfbd
000001d0: 96a0 7cbd fc55 333b ac1f e9bd 6ead c33d
000001e0: a4ad 0dbe b4bf b1bd f67a 923e 7c4f f83d
000001f0: f2fe 34bd 4275 59bd 446f 953d 27a7 3f3e
00000200: d88a 82be 4067 08bc aacc 893e 3b96 8d3c
00000210: a781 a1be e44b f93d 49ba ac3d 7ac8 9abe
00000220: 779e ee3d 4f11 3ebe 04e2 eebb b801 e3bd
00000230: e293 593d 64b8 f63d 3acd a23e 2849 d13e
00000240: 3a8a a2be bc2f 873d bddc f8be 028e 2a3e
00000250: 6063 153c 09c8 6abd 08d4 4d3e e47b 1b3e
00000260: ae57 0d3d 02ba 49bc c09b ec3b 833e 613e
00000270: 892a dc3c d6b0 9cbd 7aff aabd ebae 303d
00000280: 847f 423d eaad e43e 6093 553e 058b f13e
00000290: 2eac e9bd 8ea8 0abe 3c84 b83d dec4 c23e
000002a0: a40c 9d3d b602 473d e5cf 3cbe 0cf5 d2bd
000002b0: 560f ac3d 1419 043e 7ea5 d83d aa34 89be
000002c0: 2ea1 da3e 7c86 dbbd fc55 a13e 0975 203d
000002d0: a2cc 58bc 3c35 28be 62b5 94be ea94 36be
000002e0: c417 e2be 1edf cf3d 59bc 723e 8ac3 8ebd
000002f0: 4ef0 ce3d 628d 8dbe 028c 0bbd 9e19 203e
00000300: d40b 003e 521f 17be 16f2 0abe eafb 0e3c
00000310: f8b5 963e f453 6f3e 629d 333c 4988 9f3e
00000320: a712 133e 7013 063d eab6 a23d a8d4 a2bc
00000330: f6a2 10bd 4ee1 1c3e 119c 643d ee69 92bc
00000340: 300e 1ebe 0cab cdbd f23c 873d 4490 7ebc
00000350: 3669 1bbe 044b 18be 24eb 2fbe 48df 71be
00000360: 5101 783d ecfc 663d be96 05be 7a22 383e
00000370: 4688 b13e 6223 533d 5eda df3d 1681 75bd
00000380: 8206 0ebe d35d 3b3d d88b 8cbc cc26 c13d
00000390: 0eba 42bc 601b d93b 3c0a 533d 0ba1 963e
000003a0: 1e99 4c3e ee2a 5abe 8ce0 2ebe f7de 6fbe
000003b0: 91c9 9a3d 3fa0 1d3d 26ab 16be 7663 a73d
000003c0: eaa6 8a3e fc06 893e 8bf7 623c c3f7 0fbe
000003d0: 8cfa 3b3e d99e d9bd 3833 bebe ce77 44be
000003e0: f8c6 9cbe 5ada 41be 9731 983e 88d4 ccbd
000003f0: d950 313e ce5e 74bd 2ea4 e63d 969b 153e
-0.043718845 0.6179478 0.22085996 0.6658108 -0.03927064 0.19416179 0.014875419 0.66402555
0.25655478 0.08578631 0.09454497 -0.14092335 0.01544423 -0.24817291 0.15467668 0.18035895
0.6566644 0.084122576 0.4639854 0.15491772 -0.019409847 0.084983364 -0.12443593 0.1471092
-0.310723 -0.15097265 0.23696727 0.37853408 0.05329279 -0.5278797 0.033369713 -0.014699146
-0.26798305 0.38358513 -0.030359514 0.12149493 0.20613629 0.067393064 0.16979453 0.19339034
0.0948844 0.059251096 0.27941793 0.15906903 -0.019067347 -0.22412357 0.21561182 0.34926257
0.31514376 0.015060464 -0.05471455 0.073845476 -0.015538903 0.0954669 0.087184355 0.14152052
-0.03881952 -0.0072215656 -0.29215166 -0.18485008 0.06039325 -0.03561595 -0.02270053 0.051229894
0.17206678 0.004548241 -0.10624325 0.12246117 -0.02170909 -0.005659978 0.22706419 0.017965471
0.063590966 0.099702686 0.040649783 0.18446487 -0.02398298 -0.18607798 -0.14669143 -0.019333221
0.32985547 -0.36508995 -0.057430632 0.21979599 0.14935412 -0.13038956 0.19046307 0.09897033
-0.027390424 -0.08272828 -0.20074983 0.17074427 -0.024457533 0.24406543 -0.3337872 -0.11302185
0.07487109 0.27847016 -0.09576898 0.4778074 0.009092737 -0.16979535 -0.043780338 0.2404432
0.18337691 0.002520545 0.07502681 -0.30969936 -0.121198475 0.029770758 -0.1523071 0.0701914
0.1778213 0.15269968 0.32423168 -0.093633324 -0.061676584 0.0027364483 -0.11382994 0.095545635
-0.1383577 -0.086791426 0.28609437 0.121245354 -0.044188447 -0.05309034 0.07296613 0.18716107
-0.25496554 -0.008325398 0.2691396 0.01728355 -0.3154423 0.12172678 0.084339686 -0.30231076
0.116513185 -0.1856129 -0.0072901268 -0.11084312 0.053119548 0.120468885 0.317972 0.40876126
-0.31746083 0.066009015 -0.4860591 0.16655734 0.009117931 -0.057319675 0.20100415 0.1518398
0.034507446 -0.012312414 0.0072207153 0.21996503 0.026875751 -0.07650916 -0.083495095 0.043135565
0.04748489 0.44663936 0.20857 0.47176376 -0.11409794 -0.13540861 0.09009597 0.38040823
0.07668427 0.04858657 -0.1843868 -0.10300645 0.084013626 0.12900192 0.1057844 -0.26797992
0.42701095 -0.1071901 0.31510913 0.039174113 -0.013232382 -0.16426557 -0.29044634 -0.17830244
-0.44158757 0.10149978 0.23704661 -0.0697089 0.10104428 -0.2764693 -0.03406907 0.15634772
0.12504512 -0.14758042 -0.13568911 0.008727053 0.29435706 0.2337187 0.010962816 0.31158665
0.14362584 0.03273338 0.07945044 -0.019876793 -0.03531166 0.15320322 0.0558129 -0.017872777
-0.154351 -0.1004239 0.06603421 -0.015537325 -0.15176854 -0.14872366 -0.17179543 -0.23620331
0.06054813 0.05639355 -0.13045785 0.17981902 0.3467428 0.051547416 0.10930322 -0.05993756
-0.1386967 0.045743775 -0.017156526 0.09431228 -0.011885179 0.006625578 0.051523432 0.2941974
0.19980285 -0.21305439 -0.17077845 -0.23424898 0.07557977 0.0384829 -0.14713725 0.081732675
0.2708047 0.2676314 0.013852964 -0.14059357 0.18357295 -0.10626001 -0.37148452 -0.19186327
-0.3062055 -0.18930951 0.29725334 -0.100014746 0.17315997 -0.059660725 0.112617835 0.14610133

policy_net.2.0.bias f4 [32]
00000000: 9f8e 81be 96b9 a8bd b4ca c3ba df84 5bbd
00000010: 2440 553d a846 b8bd f689 c1bc ea61 d5bc
00000020: 8316 00ba 4029 28bd a84f 0fbd d9b3 9dbc
00000030: 28fc d63c 107c 74bd ef4e 86bc 0237 c43c
00000040: d1ee 8d3d e0a1 84bd 9b0b e4bc ae5f 0ebd
00000050: 94bc d6bc a135 12bd 7b0c abbc 173d 3fbe
00000060: 00b5 173c 6275 0dbe 628b d73b acfa b9bd
00000070: d8b5 233c e82f 8f3c 6a39 c23c 7288 17bd
-0.25304124 -0.08238523 -0.001493773 -0.053593513 0.052063122 -0.089978516 -0.023625355 -0.026047666
-0.0004886167 -0.041054964 -0.034988075 -0.019250797 0.026243284 -0.059688628 -0.01639506 0.023952011
0.06930316 -0.06476188 -0.027837565 -0.034759216 -0.026212968 -0.035695676 -0.020879975 -0.18675648
0.009259462 -0.13814309 0.006577895 -0.09081015 0.009992085 0.017478898 0.023709018 -0.03699536

policy_net.3.0.weight f4 [32, 32]
00000000: d362 88bd 6858 6dbd 4274 493d 82cb 7f3d
00000010: dcd0 e9bc 53d3 a83c 95bd cbbd f4d6 a4bd
00000020: 3e29 823e 3784 af3d 2a3d 3cbd 5a0c 2d3e
00000030: 7aeb 893d 92a3 3cbe 182b 373e b1ef 6cbe
00000040: 325f ca3d 8b66 583d 96d8 0abe 7461 633e
00000050: 20a3 febd bb9a 68bb 4f07 c1bd 07fb cbbd
00000060: ea04 783d ae74 233c b5d0 07bd 7e9c 88be
00000070: f621 8abc f534 653e c2e9 103d 7029 a63d
00000080: b286 26be 4a7e 123e aa6e 6dbc b0f5 a1bd
00000090: 1cb5 6c3d 9416 a83a 7e3d 84bd 2ef8 87be
000000a0: e8c6 a93d 60c7 c13c 3e53 ccbd 7082 89bd
000000b0: 5e1d a93d fc2d d0bd 8678 87be 8a38 26bd
000000c0: 9c87 8c3d 68a5 64be 7651 4dbe 5be7 f03d
000000d0: a8e5 bcbe 44c5 8abe 9e42 13bd 0a88 b83e
000000e0: de1e eaba ae22 86be d05f 523e 50ed 88be
000000f0: 92f5 ab3d 8923 b33b ced1 2f3e dd48 95be
00000100: b0c0 a13e 8690 70be 9e58 5b3e 588e 0b3d
00000110: c606 46be 22e2 913e e6ec 0c3e d7b1 5f3e
00000120: befb 66be 50d7 863e 68ec 2e3d 96e3 32be
00000130: 732f 953c 0d91 1cbe 880a 1bbe 2417 5dbe
00000140: dedc 493e aee8 4ebe bea2 7fbd fc8d 243e
00000150: 4bce 543d dd8a 91be ca0e d63d f479 2f3e
00000160: 8888 2a3e 3ec7 26bc 30b0 1f3e 7b13 123e
00000170: 7cbf cabd ec67 13be d887 113e f488 f33b
00000180: e403 8e3d 92be a6bd b374 f13d 96aa 043e
00000190: 249f 893e ccce 693d ceaa 5fbe f61a d33d
000001a0: 9cc0 f4bd 20a9 eabc 0e99 25bd 365c 9f3d
000001b0: 7078 8f3b d848 9dbe 70d8 693e c5a2 cebb
000001c0: 362c 9fbd f65c 3abd 77e0 383d 1e1d 9a3d
000001d0: 85d7 78bd 6461 65be 246a 91be 3c27 97be
000001e0: eae9 103e f01b c13d 340d 3fbd cac0 713d
000001f0: 21d8 563e 3200 823d a13e 7fbe 8860 4fbd
00000200: 7832 363e fc64 6c3d 2e5f 373d cc65 0bbd
00000210: 482b 97bd 675e 5fbd 66ee 0fbe 5e3f b0bd
00000220: bcac 8c3e e65d 75bd de81 ce3d 5624 e73d
00000230: 5b2f 16be 4313 8f3d 50ef c03d 5292 85be
00000240: 5a24 b8bc 649c f43d 1a81 bcbd bfd2 503e
00000250: 4f85 10be 7653 c63d 9dbe bb3b 4864 cf39
00000260: 7470 26be a160 10bd c6a8 08be 065b 053e
00000270: 97b9 0dbe 6b6f 923d bd70 aa3d 2774 ad3d
00000280: 11a0 eb3c 149d c0bc fe3d 3e3e 98c7 74bd
00000290: 5858 0bbd 850f 3abd 74e2 323d a0a9 0bbe
000002a0: 9d75 12be 096d 0b3d 3881 c0be eae7 ae3c
000002b0: 14d9 2dbe cbf6 57bd 9198 9bbc dfbd c4bc
000002c0: 20cb b8bd f3cc cd3d ff09 21be b41d 153e
000002d0: cf07 8c3e 0e70 adbd f03f 6c3d b7e9 2fbe
000002e0: 1638 8fbd 78e4 f23d 5c94 ddbd c4e5 aebd
000002f0: b255 84bd a9f8 0e3e fea9 adbe 5277 1c3e
00000300: d8e5 723e 2432 78be 6598 94be 102e 263c
00000310: baf2 3a3c ef40 10bd ec21 4bbc bb75 b53d
00000320: b385 c83d 5e39 39be ca68 9a3e 44db a43d
00000330: cef9 573e d00d 053e e5b3 dd3d 16ee 163d
00000340: 052b 483e 7a82 453e 1776 e83c 181a 2e3d
00000350: 9a23 82be 1e55 9c3d 447e 49be 4b9a 33bc
00000360: 679e 0bbe 42a8 3bbe 22b0 82bd ac31 0d3d
00000370: 9c18 723d 7af4 7e3d 8aca e43d 229c f1bd
00000380: 7ca1 2a3e 346b f13d 9378 c8bd 481e f73d
00000390: 48a8 37be c680 0c3e 0c43 4e3e 3de9 ab3d
000003a0: bf68 0cbe 811f a93e 311a 073e f445 bbbd
000003b0: 83a4 44bc cac2 853d 948f bbbd ab7c 2ebe
000003c0: 7e53 3d3d f2a1 b2bd daf4 9d3d dccb 5e3e
000003d0: 26a4 85bd 80c9 bcbc 4e5c ccbd 3ab6 4a3d
000003e0: 9c3d d2bd f090 a83c 9773 d639 0052 07bd
000003f0: 3c00 343e 4a02 c53d d710 ac3d 9a34 efbd
-0.06659474 -0.05794564 0.049183138 0.06244994 -0.028541975 0.02060858 -0.09948269 -0.080488116
0.2542209 0.0857014 -0.045956768 0.16899243 0.06734367 -0.18421772 0.17887533 -0.2313831
0.09881438 0.052832168 -0.13559183 0.22205144 -0.124334574 -0.0035492617 -0.09425222 -0.09959989
0.06055156 0.009976549 -0.033158023 -0.26681894 -0.016861897 0.22383483 0.03537918 0.08113372
-0.1626232 0.14305988 -0.014491716 -0.07908189 0.057789907 0.0012824112 -0.06457041 -0.26556534
0.082898915 0.02365464 -0.09976815 -0.06714332 0.082575545 -0.10165021 -0.2645914 -0.040581264
0.06861803 -0.22328722 -0.20050606 0.117628776 -0.36893964 -0.27103627 -0.035952203 0.3604129
-0.0017861982 -0.26198334 0.20544362 -0.26743555 0.08396448 0.0054668826 0.17169878 -0.29157153
0.3159232 -0.23492631 0.21420524 0.034071296 -0.19338521 0.28492838 0.13762245 0.21845184
-0.2255697 0.26336145 0.042705923 -0.1746963 0.018211102 -0.15289707 -0.15140736 -0.21590859
0.1971316 -0.20205948 -0.062411062 0.16069788 0.05195455 -0.28426257 0.104520395 0.17136365
0.16653645 -0.010179339 0.15594554 0.14265244 -0.09899804 -0.14395112 0.14211977 0.0074320976
0.06934336 -0.08141817 0.11789837 0.12955698 0.26879227 0.057081982 -0.218425 0.10307877
-0.119508 -0.028645098 -0.040429167 0.0778126 0.004378371 -0.30719638 0.2283647 -0.0063060247
-0.077721044 -0.04549881 0.04513594 0.07525085 -0.06075241 -0.22400433 -0.2840129 -0.2952212
0.14151731 0.09429157 -0.04664345 0.05902175 0.20980884 0.063476935 -0.24926235 -0.05062917
0.1779269 0.057713494 0.044768505 -0.034032628 -0.07381302 -0.05453339 -0.14055786 -0.08605836
0.27475536 -0.059904 0.10083364 0.112862274 -0.14666502 0.06986096 0.09420645 -0.26088196
-0.022478271 0.11943892 -0.09204312 0.20392893 -0.14113353 0.09683888 0.00572951 0.00039556832
-0.16253835 -0.035248403 -0.13345632 0.13023004 -0.13840328 0.071501575 0.08322284 0.0846942
0.028762849 -0.0235124 0.18578336 -0.05976066 -0.034019798 -0.045424957 0.043672994 -0.13638926
-0.14302678 0.03403953 -0.37598586 0.02135082 -0.1697734 -0.052725594 -0.018993648 -0.024016319
-0.09023118 0.100488566 -0.1572647 0.14562112 0.27349707 -0.08468638 0.057678163 -0.17178999
-0.069931194 0.11859983 -0.10819313 -0.08539918 -0.064616576 0.13962044 -0.33918756 0.15279892
0.23720491 -0.24237877 -0.29022518 0.010142818 0.01141041 -0.035218176 -0.012398224 0.08860346
0.09791126 -0.1808829 0.30158073 0.08049634 0.21091387 0.1299355 0.10825328 0.03684815
0.1954766 0.19288054 0.028376622 0.042505354 -0.25417787 0.07633422 -0.19677073 -0.010962079
-0.13634644 -0.18325904 -0.06381251 0.0344712 0.0591055 0.06224487 0.11171444 -0.11797358
0.16663164 0.117880255 -0.09788623 0.120663226 -0.17935288 0.13720998 0.20142764 0.08394096
-0.13711832 0.33031848 0.13193585 -0.09144202 -0.012002113 0.06531294 -0.09158245 -0.17039745
0.046222202 -0.08722295 0.07712717 0.21757454 -0.065254495 -0.023045301 -0.09978543 0.04949019
-0.10265657 0.020576924 0.00040903382 -0.033037186 0.17578214 0.09619577 0.084016494 -0.11679955

policy_net.3.0.bias f4 [32]
00000000: 5276 213c 59ca 3ebd b98a 93bd ab1b 673d
00000010: ac5e 8abb 7066 80bd e277 a53d da3d 0b3b
00000020: 34b2 eb3d e304 cfbd 6268 0bbd cbd7 eaba
00000030: 1887 153c e86a 20bd 95f7 98bd 2ea4 20bb
00000040: 47fc 28bb 5ca3 733c 0809 1f3d 5adc ac3b
00000050: 08bc 863d 86ff 453b f157 1abd 4014 503d
00000060: 96b8 abbd c807 c03c 02d2 6e3c 68d0 cfbd
00000070: fe08 bfbc e775 b5bd e3f7 4abd 15de 17bd
0.00985487 -0.046579693 -0.072041936 0.05642287 -0.0042227115 -0.062695384 0.080795065 0.0021246583
0.11508599 -0.10108354 -0.034035094 -0.0017917095 0.009126447 -0.039164454 -0.074690975 -0.0024511921
-0.0025785135 0.014870491 0.038826972 0.0052752914 0.06578833 0.0030212118 -0.037681524 0.050800562
-0.08384816 0.02344121 0.014576437 -0.10147172 -0.023319717 -0.08860379 -0.04955281 -0.03707703

policy_net.4.0.weight f4 [32, 32]
00000000: 9b32 1e3c c9ea fdbd 5f0f 27be 72fd 42be
00000010: c4fa b2bc bc06 f0bd 0abc 053d cee3 5abd
00000020: e829 063e 66d5 d3bd 4e8d b0bc c8c3 dfbd
00000030: 5634 9a3d 349d 16be 989a a03c 7684 ab3c
00000040: 9477 b8bd b8ef 013e cef0 a9bb 281a 143d
00000050: 4e30 d53d 667a b5bd c8bc 87b9 d0ad 303c
00000060: 622e 273c 4286 d53d f180 f4bd 0274 c4bd
00000070: 2b76 dfbd 1612 dc3d eafd 903b c62a 37bd
00000080: 9560 db3d 68f9 02bb 737a 673d dc8c 573e
00000090: b08d 69bc 6268 4fbe 044a e5bb 9ed3 263e
000000a0: aade 4f3e c042 0c3e 1a6a 81bd 16f9 1e3d
000000b0: 0001 3a3e 2ca8 1f3c ec13 6cbd 5f9c 353e
000000c0: 6e8d 61bd 49f1 263e 9453 5b3d cc06 acbc
000000d0: 1e63 4cbe d9e6 be3d 3c3a 66bd 0766 f7bc
000000e0: 00cd 29be 142a a73d 37dd c73d ea35 80bd
000000f0: 2cb3 4bbd ba8d 3ebd b5c8 bd3d 7c3b 80bd
00000100: 401e 6dbd c443 b33b d800 d93d 341a 91bd
00000110: aa04 46bb 0ca6 8abe 741e 783e 7c17 0c3e
00000120: 7c76 573e 5824 0f3e cef2 33be f611 9abc
00000130: 1aeb e03d 12e1 ca3c 548d 133e 7e8a 7c3e
00000140: c48d 023d 6244 cfbd 52a7 2d3b 3112 8a3d
00000150: 6867 08be 380b 8a3e c8ad 44be 91bd bbbb
00000160: f70c 46be 68ef 22bd 612b c4bd 9a01 42be
00000170: f8a4 753c 82e3 13be 2f81 09be 1ae7 dbbd
00000180: f16a ce3c 500f aebc e0f4 453d 5aaa 24bd
00000190: 7a2d f1bc dcaf d0bc 863e 8abd 4116 45bc
000001a0: 347c be3d 52a1 8c3d 4d81 b4bb 5888 843d
000001b0: 3ec8 8f3d 2083 2bbd 34b3 513c b6f0 a4bd
000001c0: 5344 2e3d e1cc 38be 56f9 f8bc 6c36 653d
000001d0: 8602 34bd 5610 363d 12b1 ddbd d0e0 c2bc
000001e0: 2356 963c b879 f7bc b4cf 05be e975 e8bd
000001f0: 94c7 4b3d 4a11 19bd a2db b7bd 9e05 553e
00000200: 37f4 913d 7c2b 1e3e f743 33be fccd f5bc
00000210: b623 5a3d 4240 15be ced0 eebd 0b25 a2bb
00000220: 8430 bc3c 94dd b03d 76e4 7b3d f45e 0c3e
00000230: 530c 3abe de94 973b 3b01 83bd 8991 c23d
00000240: ca5d 32be 9640 4e3d 3ef6 023d 0943 543d
00000250: f0e8 0dbd 3c54 5e3b 3150 053e 6469 583b
00000260: 3417 e33d 4e7e f1bd d4e5 b03d 8279 253e
00000270: a07d a63d 0a24 8bbc bfea a3bc da67 36be
00000280: 285e 66bd 0051 14bd 2b00 f7bc 0a38 c2bc
00000290: e2cd 0b3d 96e8 d73d 7ac5 5d3d fe50 27be
000002a0: e48c 8ebd 3edb 07bc 7a06 9b3d 6f0d 05be
000002b0: 0297 a43d 44ce df3d d099 18bd 927e b5bd
000002c0: f55a 683d 86ed 403e 3ce6 813c 84ba 533d
000002d0: f824 a9bd 8eed a83d 1c4b 4d3d 669f 30bd
000002e0: dee4 03bd d16e 24bd 2d14 febc 99b9 bf3c
000002f0: 6ea6 00be d655 b4bd 1f8d 8abc 28b8 31bd
00000300: 5fc6 763d 8067 07be 0053 37be b16f 8c3c
00000310: dcf8 febd 57c5 743e 2652 90be b0c7 a1bd
00000320: ac77 f1bc 4a24 d63d ec3f ba3d e283 b13d
00000330: eabd 63be f23d 62be 50b4 3fbe 936d 96be
00000340: 1b81 8abd 3858 6abd 16d8 b83d abf6 903d
00000350: 7203 abbc 6a2c 67be 9ed3 103e 66bb 093e
00000360: 1ad0 303e 1ec6 903d fa04 39bd ee5b db3d
00000370: 6cb1 78bd ff05 aabc 8862 c23d ea3c 803d
00000380: 743e f3bd 3c2d 02bd 2e30 b3bd 3341 2e3b
00000390: ec9a 483d bd22 b8bd 22a9 73bc 8917 08be
000003a0: ccaf 823d defe b0bd 3cd5 b1bc 1f68 a1bd
000003b0: 4cd4 7b3d f512 153d 8044 61bb 2c2e e4bc
000003c0: daa2 9e3d 041c 5f3e 2d93 d83d 664d 8ebd
000003d0: 2078 34be 3c43 083d 9554 043e 8c3e 4fbe
000003e0: 9a37 203e 2a47 fa3d ce83 333d 1067 333d
000003f0: c0e7 40bd 5daa a2bd 0a12 0d3e 6a48 653d
0.00965562 -0.12398297 -0.16314457 -0.19041994 -0.02184809 -0.117200345 0.03265003 -0.053439908
0.13101923 -0.10343437 -0.021551754 -0.10926014 0.075295135 -0.14708406 0.019604966 0.020937186
-0.09007183 0.12689102 -0.005186177 0.036157757 0.10409604 -0.08861236 -0.0002588986 0.010783628
0.01020393 0.10425998 -0.11938656 -0.09592439 -0.109112106 0.10745637 0.0044248 -0.044718526
0.10711781 -0.0019985083 0.05651326 0.21049827 -0.014254972 -0.20254663 -0.0069973487 0.16291663
0.20299783 0.13697338 -0.063190654 0.038811766 0.18164444 0.009744685 -0.057636186 0.17735432
-0.05506652 0.1630298 0.053546503 -0.020999335 -0.19959685 0.093213744 -0.05620788 -0.030200018
-0.16582108 0.08162323 0.0975899 -0.06260283 -0.04973142 -0.04652188 0.092667975 -0.06261346
-0.057890177 0.005470725 0.10595864 -0.07085076 -0.0030215182 -0.2707981 0.24230367 0.13680834
0.21041292 0.13978708 -0.17573091 -0.018807393 0.10982342 0.024765525 0.14409381 0.24662206
0.03187348 -0.10120465 0.0026497436 0.06741751 -0.13320696 0.26961684 -0.19206917 -0.005729385
-0.19340883 -0.039779097 -0.09578586 -0.18945923 0.014992945 -0.14442256 -0.13428186 -0.107374385
0.025197478 -0.021247536 0.048329234 -0.040201522 -0.02944063 -0.025474481 -0.06750207 -0.0120292315
0.093010336 0.06866707 -0.005508578 0.06471318 0.07020615 -0.041873097 0.012799073 -0.080537245
0.042545628 -0.18046905 -0.03039233 0.055960104 -0.04394772 0.044449173 -0.10824789 -0.02378884
0.01835162 -0.030209407 -0.13067514 -0.113506146 0.04975088 -0.037370004 -0.089774385 0.20802924
0.071266584 0.15446275 -0.17506395 -0.030005448 0.053256713 -0.14575294 -0.1166092 -0.0049482635
0.022972353 0.08636013 0.061497174 0.13708097 -0.18168764 0.0046259006 -0.06396719 0.09500415
-0.1741859 0.050354563 0.031973116 0.051821742 -0.034645975 0.003392472 0.13018872 0.0033021802
0.1108841 -0.11791669 0.08637586 0.16159633 0.0812943 -0.016984958 -0.020009397 -0.17813054
-0.05624214 -0.03621006 -0.030151447 -0.023708362 0.034131892 0.10542409 0.054143406 -0.1633949
-0.069604665 -0.0082920175 0.07569595 -0.12993406 0.08036615 0.10928014 -0.037256062 -0.08862032
0.05672737 0.18840608 0.015856855 0.051691547 -0.08259004 0.08248435 0.050120458 -0.043120764
-0.032200687 -0.040144745 -0.03101548 0.02340393 -0.12563488 -0.088054344 -0.016912995 -0.043388516
0.060247775 -0.13223076 -0.17902756 0.017143102 -0.1244981 0.23903404 -0.28187674 -0.078994155
-0.02947601 0.1045614 0.090942234 0.08667733 -0.22240415 -0.22093943 -0.18721128 -0.29380473
-0.06762906 -0.05721304 0.0902559 0.07078298 -0.020875666 -0.22575536 0.14143226 0.13450393
0.17266884 0.07069038 -0.04517076 0.107108936 -0.060716078 -0.020754812 0.094914496 0.062616184
-0.11877146 -0.03178142 -0.08749424 0.0026589155 0.04897587 -0.08991001 -0.014871867 -0.13290228
0.06381187 -0.08642362 -0.021708123 -0.07881188 0.06148176 0.036395032 -0.0034373105 -0.027854048
0.07745905 0.21788031 0.105749466 -0.06948356 -0.17623949 0.033267245 0.1292289 -0.20238703
0.1564621 0.12220605 0.04382687 0.04379946 -0.047096014 -0.079426505 0.13776413 0.055977263

policy_net.4.0.bias f4 [32]
00000000: acee 5a3b 9e1f 8fbd 276c 803b 6b16 30bc
00000010: 88d9 993c 7663 1abc 55e8 143d 468b 1fbd
00000020: a22f 79bd 3c96 b8bc e421 353d c1e8 2d3d
00000030: 8687 963c 340b 39bc be9b ddbd 3e2c c4bb
00000040: e5b9 723c e86d cabb 172d babc ec21 c63c
00000050: 0e67 073d 4747 5d3c 6b0b 07bc 0453 efbc
00000060: 7099 e6bd b261 0f3c d7cb 01bc f0a8 f23b
00000070: dfd5 cd3c 3ea5 57bc 5eb5 a2bc 7e28 143d
0.003340642 -0.069884524 0.0039191428 -0.010747532 0.018780485 -0.009423127 0.03635438 -0.03895118
-0.06083644 -0.022532575 0.044221774 0.0424583 0.01837517 -0.011294175 -0.10820721 -0.0059867194
0.0148148285 -0.0061776526 -0.022726579 0.024186097 0.033057265 0.013505763 -0.008242468 -0.02921439
-0.11259735 0.00875132 -0.007922134 0.007405393 0.025126396 -0.013161955 -0.019861873 0.03617143

policy_net.5.weight f4 [1, 32]
00000000: f834 48bc 1dc1 a33d 2e8c 3c3e 23fa 813b
00000010: 77ef 93bb f38d 073b 2877 d3bd 1e96 823c
00000020: 2024 ca3c 3328 c63b 0453 78bc d85f adbd
00000030: 183c 0eba 21b7 90bd 4bd5 d0bd 9678 22be
00000040: 86c2 00bc 286b bbba 043d 243c f633 a8bc
00000050: ca28 de3d a29e a6bc 56be 2dbb 87b7 353c
00000060: 6358 f6bd 8c92 963a e142 57ba 9a5f dfba
00000070: c4e9 c8b8 0827 44bc 2429 0f3c de5a 2bbd
-0.01221966 0.07995818 0.1841285 0.003966586 -0.0045146304 0.0020683974 -0.103254616 0.015940722
0.024675429 0.0060472726 -0.015156511 -0.08465546 -0.0005425825 -0.07066179 -0.101969324 -0.15866312
-0.007858878 -0.0014298903 0.010024313 -0.02053259 0.10847624 -0.020339314 -0.0026511154 0.01109112
-0.12028577 0.0011487766 -0.0008211565 -0.0017042041 -9.5802854e-05 -0.011972196 0.008737836 -0.041834705
